node {
  name: "ImageTensor"
  op: "Placeholder"
  attr {
    key: "_output_shapes"
    value {
      list {
        shape {
          dim {
            size: 1
          }
          dim {
            size: -1
          }
          dim {
            size: -1
          }
          dim {
            size: 3
          }
        }
      }
    }
  }
  attr {
    key: "dtype"
    value {
      type: DT_UINT8
    }
  }
  attr {
    key: "shape"
    value {
      shape {
        dim {
          size: 1
        }
        dim {
          size: -1
        }
        dim {
          size: -1
        }
        dim {
          size: 3
        }
      }
    }
  }
}
node {
  name: "Shape"
  op: "Shape"
  input: "ImageTensor"
  attr {
    key: "T"
    value {
      type: DT_UINT8
    }
  }
  attr {
    key: "_output_shapes"
    value {
      list {
        shape {
          dim {
            size: 4
          }
        }
      }
    }
  }
  attr {
    key: "out_type"
    value {
      type: DT_INT32
    }
  }
}
node {
  name: "strided_slice"
  op: "StridedSlice"
  input: "Shape"
  input: "strided_slice/stack"
  input: "strided_slice/stack_1"
  input: "strided_slice/stack_2"
  attr {
    key: "Index"
    value {
      type: DT_INT32
    }
  }
  attr {
    key: "T"
    value {
      type: DT_INT32
    }
  }
  attr {
    key: "_output_shapes"
    value {
      list {
        shape {
          dim {
            size: 2
          }
        }
      }
    }
  }
  attr {
    key: "begin_mask"
    value {
      i: 0
    }
  }
  attr {
    key: "ellipsis_mask"
    value {
      i: 0
    }
  }
  attr {
    key: "end_mask"
    value {
      i: 0
    }
  }
  attr {
    key: "new_axis_mask"
    value {
      i: 0
    }
  }
  attr {
    key: "shrink_axis_mask"
    value {
      i: 0
    }
  }
}
node {
  name: "Squeeze"
  op: "Squeeze"
  input: "ImageTensor"
  attr {
    key: "T"
    value {
      type: DT_UINT8
    }
  }
  attr {
    key: "_output_shapes"
    value {
      list {
        shape {
          dim {
            size: -1
          }
          dim {
            size: -1
          }
          dim {
            size: 3
          }
        }
      }
    }
  }
  attr {
    key: "squeeze_dims"
    value {
      list {
        i: 0
      }
    }
  }
}
node {
  name: "Cast"
  op: "Cast"
  input: "Squeeze"
  attr {
    key: "DstT"
    value {
      type: DT_FLOAT
    }
  }
  attr {
    key: "SrcT"
    value {
      type: DT_UINT8
    }
  }
  attr {
    key: "Truncate"
    value {
      b: false
    }
  }
  attr {
    key: "_output_shapes"
    value {
      list {
        shape {
          dim {
            size: -1
          }
          dim {
            size: -1
          }
          dim {
            size: 3
          }
        }
      }
    }
  }
}
node {
  name: "Shape_1"
  op: "Shape"
  input: "Cast"
  attr {
    key: "T"
    value {
      type: DT_FLOAT
    }
  }
  attr {
    key: "_output_shapes"
    value {
      list {
        shape {
          dim {
            size: 3
          }
        }
      }
    }
  }
  attr {
    key: "out_type"
    value {
      type: DT_INT32
    }
  }
}
node {
  name: "strided_slice_1"
  op: "StridedSlice"
  input: "Shape_1"
  input: "strided_slice_1/stack"
  input: "strided_slice_1/stack_1"
  input: "strided_slice_1/stack_2"
  attr {
    key: "Index"
    value {
      type: DT_INT32
    }
  }
  attr {
    key: "T"
    value {
      type: DT_INT32
    }
  }
  attr {
    key: "_output_shapes"
    value {
      list {
        shape {
        }
      }
    }
  }
  attr {
    key: "begin_mask"
    value {
      i: 0
    }
  }
  attr {
    key: "ellipsis_mask"
    value {
      i: 0
    }
  }
  attr {
    key: "end_mask"
    value {
      i: 0
    }
  }
  attr {
    key: "new_axis_mask"
    value {
      i: 0
    }
  }
  attr {
    key: "shrink_axis_mask"
    value {
      i: 1
    }
  }
}
node {
  name: "strided_slice_2"
  op: "StridedSlice"
  input: "Shape_1"
  input: "strided_slice_2/stack"
  input: "strided_slice_2/stack_1"
  input: "strided_slice_2/stack_2"
  attr {
    key: "Index"
    value {
      type: DT_INT32
    }
  }
  attr {
    key: "T"
    value {
      type: DT_INT32
    }
  }
  attr {
    key: "_output_shapes"
    value {
      list {
        shape {
        }
      }
    }
  }
  attr {
    key: "begin_mask"
    value {
      i: 0
    }
  }
  attr {
    key: "ellipsis_mask"
    value {
      i: 0
    }
  }
  attr {
    key: "end_mask"
    value {
      i: 0
    }
  }
  attr {
    key: "new_axis_mask"
    value {
      i: 0
    }
  }
  attr {
    key: "shrink_axis_mask"
    value {
      i: 1
    }
  }
}
node {
  name: "ToFloat_1/x"
  op: "Pack"
  input: "strided_slice_1"
  input: "strided_slice_2"
  attr {
    key: "N"
    value {
      i: 2
    }
  }
  attr {
    key: "T"
    value {
      type: DT_INT32
    }
  }
  attr {
    key: "_output_shapes"
    value {
      list {
        shape {
          dim {
            size: 2
          }
        }
      }
    }
  }
  attr {
    key: "axis"
    value {
      i: 0
    }
  }
}
node {
  name: "ToFloat_1"
  op: "Cast"
  input: "ToFloat_1/x"
  attr {
    key: "DstT"
    value {
      type: DT_FLOAT
    }
  }
  attr {
    key: "SrcT"
    value {
      type: DT_INT32
    }
  }
  attr {
    key: "Truncate"
    value {
      b: false
    }
  }
  attr {
    key: "_output_shapes"
    value {
      list {
        shape {
          dim {
            size: 2
          }
        }
      }
    }
  }
}
node {
  name: "mul"
  op: "Mul"
  input: "ToFloat_1"
  input: "ToFloat/x"
  attr {
    key: "T"
    value {
      type: DT_FLOAT
    }
  }
  attr {
    key: "_output_shapes"
    value {
      list {
        shape {
          dim {
            size: 2
          }
        }
      }
    }
  }
}
node {
  name: "ToInt32"
  op: "Cast"
  input: "mul"
  attr {
    key: "DstT"
    value {
      type: DT_INT32
    }
  }
  attr {
    key: "SrcT"
    value {
      type: DT_FLOAT
    }
  }
  attr {
    key: "Truncate"
    value {
      b: false
    }
  }
  attr {
    key: "_output_shapes"
    value {
      list {
        shape {
          dim {
            size: 2
          }
        }
      }
    }
  }
}
node {
  name: "ExpandDims"
  op: "ExpandDims"
  input: "Cast"
  input: "ExpandDims/dim"
  attr {
    key: "T"
    value {
      type: DT_FLOAT
    }
  }
  attr {
    key: "Tdim"
    value {
      type: DT_INT32
    }
  }
  attr {
    key: "_output_shapes"
    value {
      list {
        shape {
          dim {
            size: 1
          }
          dim {
            size: -1
          }
          dim {
            size: -1
          }
          dim {
            size: 3
          }
        }
      }
    }
  }
}
node {
  name: "ResizeBilinear"
  op: "ResizeBilinear"
  input: "ExpandDims"
  input: "ToInt32"
  attr {
    key: "T"
    value {
      type: DT_FLOAT
    }
  }
  attr {
    key: "_output_shapes"
    value {
      list {
        shape {
          dim {
            size: 1
          }
          dim {
            size: -1
          }
          dim {
            size: -1
          }
          dim {
            size: 3
          }
        }
      }
    }
  }
  attr {
    key: "align_corners"
    value {
      b: true
    }
  }
  attr {
    key: "half_pixel_centers"
    value {
      b: false
    }
  }
}
node {
  name: "Squeeze_1"
  op: "Squeeze"
  input: "ResizeBilinear"
  attr {
    key: "T"
    value {
      type: DT_FLOAT
    }
  }
  attr {
    key: "_output_shapes"
    value {
      list {
        shape {
          dim {
            size: -1
          }
          dim {
            size: -1
          }
          dim {
            size: 3
          }
        }
      }
    }
  }
  attr {
    key: "squeeze_dims"
    value {
      list {
        i: 0
      }
    }
  }
}
node {
  name: "Shape_2"
  op: "Shape"
  input: "Squeeze_1"
  attr {
    key: "T"
    value {
      type: DT_FLOAT
    }
  }
  attr {
    key: "_output_shapes"
    value {
      list {
        shape {
          dim {
            size: 3
          }
        }
      }
    }
  }
  attr {
    key: "out_type"
    value {
      type: DT_INT32
    }
  }
}
node {
  name: "strided_slice_3"
  op: "StridedSlice"
  input: "Shape_2"
  input: "strided_slice_3/stack"
  input: "strided_slice_3/stack_1"
  input: "strided_slice_3/stack_2"
  attr {
    key: "Index"
    value {
      type: DT_INT32
    }
  }
  attr {
    key: "T"
    value {
      type: DT_INT32
    }
  }
  attr {
    key: "_output_shapes"
    value {
      list {
        shape {
        }
      }
    }
  }
  attr {
    key: "begin_mask"
    value {
      i: 0
    }
  }
  attr {
    key: "ellipsis_mask"
    value {
      i: 0
    }
  }
  attr {
    key: "end_mask"
    value {
      i: 0
    }
  }
  attr {
    key: "new_axis_mask"
    value {
      i: 0
    }
  }
  attr {
    key: "shrink_axis_mask"
    value {
      i: 1
    }
  }
}
node {
  name: "strided_slice_4"
  op: "StridedSlice"
  input: "Shape_2"
  input: "strided_slice_4/stack"
  input: "strided_slice_4/stack_1"
  input: "strided_slice_4/stack_2"
  attr {
    key: "Index"
    value {
      type: DT_INT32
    }
  }
  attr {
    key: "T"
    value {
      type: DT_INT32
    }
  }
  attr {
    key: "_output_shapes"
    value {
      list {
        shape {
        }
      }
    }
  }
  attr {
    key: "begin_mask"
    value {
      i: 0
    }
  }
  attr {
    key: "ellipsis_mask"
    value {
      i: 0
    }
  }
  attr {
    key: "end_mask"
    value {
      i: 0
    }
  }
  attr {
    key: "new_axis_mask"
    value {
      i: 0
    }
  }
  attr {
    key: "shrink_axis_mask"
    value {
      i: 1
    }
  }
}
node {
  name: "sub"
  op: "Sub"
  input: "sub/x"
  input: "strided_slice_3"
  attr {
    key: "T"
    value {
      type: DT_INT32
    }
  }
  attr {
    key: "_output_shapes"
    value {
      list {
        shape {
        }
      }
    }
  }
}
node {
  name: "Maximum"
  op: "Maximum"
  input: "sub"
  input: "Maximum/y"
  attr {
    key: "T"
    value {
      type: DT_INT32
    }
  }
  attr {
    key: "_output_shapes"
    value {
      list {
        shape {
        }
      }
    }
  }
}
node {
  name: "add"
  op: "Add"
  input: "strided_slice_3"
  input: "Maximum"
  attr {
    key: "T"
    value {
      type: DT_INT32
    }
  }
  attr {
    key: "_output_shapes"
    value {
      list {
        shape {
        }
      }
    }
  }
}
node {
  name: "sub_1"
  op: "Sub"
  input: "sub_1/x"
  input: "strided_slice_4"
  attr {
    key: "T"
    value {
      type: DT_INT32
    }
  }
  attr {
    key: "_output_shapes"
    value {
      list {
        shape {
        }
      }
    }
  }
}
node {
  name: "Maximum_1"
  op: "Maximum"
  input: "sub_1"
  input: "Maximum_1/y"
  attr {
    key: "T"
    value {
      type: DT_INT32
    }
  }
  attr {
    key: "_output_shapes"
    value {
      list {
        shape {
        }
      }
    }
  }
}
node {
  name: "add_1"
  op: "Add"
  input: "strided_slice_4"
  input: "Maximum_1"
  attr {
    key: "T"
    value {
      type: DT_INT32
    }
  }
  attr {
    key: "_output_shapes"
    value {
      list {
        shape {
        }
      }
    }
  }
}
node {
  name: "Reshape"
  op: "Reshape"
  input: "Reshape/tensor"
  input: "Reshape/shape"
  attr {
    key: "T"
    value {
      type: DT_FLOAT
    }
  }
  attr {
    key: "Tshape"
    value {
      type: DT_INT32
    }
  }
  attr {
    key: "_output_shapes"
    value {
      list {
        shape {
          dim {
            size: 1
          }
          dim {
            size: 1
          }
          dim {
            size: 3
          }
        }
      }
    }
  }
}
node {
  name: "Equal"
  op: "Equal"
  input: "Rank"
  input: "Equal/y"
  attr {
    key: "T"
    value {
      type: DT_INT32
    }
  }
  attr {
    key: "_output_shapes"
    value {
      list {
        shape {
        }
      }
    }
  }
  attr {
    key: "incompatible_shape_error"
    value {
      b: true
    }
  }
}
node {
  name: "Assert/Assert"
  op: "Assert"
  input: "Equal"
  input: "Assert/Assert/data_0"
  input: "Assert/Assert/data_1"
  input: "Rank"
  attr {
    key: "T"
    value {
      list {
        type: DT_STRING
        type: DT_INT32
        type: DT_INT32
      }
    }
  }
  attr {
    key: "summarize"
    value {
      i: 3
    }
  }
}
node {
  name: "sub_2"
  op: "Sub"
  input: "Squeeze_1"
  input: "Reshape"
  input: "^Assert/Assert"
  attr {
    key: "T"
    value {
      type: DT_FLOAT
    }
  }
  attr {
    key: "_output_shapes"
    value {
      list {
        shape {
          dim {
            size: -1
          }
          dim {
            size: -1
          }
          dim {
            size: 3
          }
        }
      }
    }
  }
}
node {
  name: "Shape_3"
  op: "Shape"
  input: "sub_2"
  attr {
    key: "T"
    value {
      type: DT_FLOAT
    }
  }
  attr {
    key: "_output_shapes"
    value {
      list {
        shape {
          dim {
            size: 3
          }
        }
      }
    }
  }
  attr {
    key: "out_type"
    value {
      type: DT_INT32
    }
  }
}
node {
  name: "strided_slice_5"
  op: "StridedSlice"
  input: "Shape_3"
  input: "strided_slice_5/stack"
  input: "strided_slice_5/stack_1"
  input: "strided_slice_5/stack_2"
  attr {
    key: "Index"
    value {
      type: DT_INT32
    }
  }
  attr {
    key: "T"
    value {
      type: DT_INT32
    }
  }
  attr {
    key: "_output_shapes"
    value {
      list {
        shape {
        }
      }
    }
  }
  attr {
    key: "begin_mask"
    value {
      i: 0
    }
  }
  attr {
    key: "ellipsis_mask"
    value {
      i: 0
    }
  }
  attr {
    key: "end_mask"
    value {
      i: 0
    }
  }
  attr {
    key: "new_axis_mask"
    value {
      i: 0
    }
  }
  attr {
    key: "shrink_axis_mask"
    value {
      i: 1
    }
  }
}
node {
  name: "strided_slice_6"
  op: "StridedSlice"
  input: "Shape_3"
  input: "strided_slice_6/stack"
  input: "strided_slice_6/stack_1"
  input: "strided_slice_6/stack_2"
  attr {
    key: "Index"
    value {
      type: DT_INT32
    }
  }
  attr {
    key: "T"
    value {
      type: DT_INT32
    }
  }
  attr {
    key: "_output_shapes"
    value {
      list {
        shape {
        }
      }
    }
  }
  attr {
    key: "begin_mask"
    value {
      i: 0
    }
  }
  attr {
    key: "ellipsis_mask"
    value {
      i: 0
    }
  }
  attr {
    key: "end_mask"
    value {
      i: 0
    }
  }
  attr {
    key: "new_axis_mask"
    value {
      i: 0
    }
  }
  attr {
    key: "shrink_axis_mask"
    value {
      i: 1
    }
  }
}
node {
  name: "GreaterEqual"
  op: "GreaterEqual"
  input: "add_1"
  input: "strided_slice_6"
  attr {
    key: "T"
    value {
      type: DT_INT32
    }
  }
  attr {
    key: "_output_shapes"
    value {
      list {
        shape {
        }
      }
    }
  }
}
node {
  name: "Assert_1/Assert"
  op: "Assert"
  input: "GreaterEqual"
  input: "Assert_1/Assert/data_0"
  attr {
    key: "T"
    value {
      list {
        type: DT_STRING
      }
    }
  }
  attr {
    key: "summarize"
    value {
      i: 3
    }
  }
}
node {
  name: "GreaterEqual_1"
  op: "GreaterEqual"
  input: "add"
  input: "strided_slice_5"
  attr {
    key: "T"
    value {
      type: DT_INT32
    }
  }
  attr {
    key: "_output_shapes"
    value {
      list {
        shape {
        }
      }
    }
  }
}
node {
  name: "Assert_2/Assert"
  op: "Assert"
  input: "GreaterEqual_1"
  input: "Assert_2/Assert/data_0"
  attr {
    key: "T"
    value {
      list {
        type: DT_STRING
      }
    }
  }
  attr {
    key: "summarize"
    value {
      i: 3
    }
  }
}
node {
  name: "sub_3"
  op: "Sub"
  input: "add_1"
  input: "sub_3/y"
  attr {
    key: "T"
    value {
      type: DT_INT32
    }
  }
  attr {
    key: "_output_shapes"
    value {
      list {
        shape {
        }
      }
    }
  }
}
node {
  name: "sub_4"
  op: "Sub"
  input: "sub_3"
  input: "strided_slice_6"
  attr {
    key: "T"
    value {
      type: DT_INT32
    }
  }
  attr {
    key: "_output_shapes"
    value {
      list {
        shape {
        }
      }
    }
  }
}
node {
  name: "sub_5"
  op: "Sub"
  input: "add"
  input: "sub_5/y"
  attr {
    key: "T"
    value {
      type: DT_INT32
    }
  }
  attr {
    key: "_output_shapes"
    value {
      list {
        shape {
        }
      }
    }
  }
}
node {
  name: "sub_6"
  op: "Sub"
  input: "sub_5"
  input: "strided_slice_5"
  attr {
    key: "T"
    value {
      type: DT_INT32
    }
  }
  attr {
    key: "_output_shapes"
    value {
      list {
        shape {
        }
      }
    }
  }
}
node {
  name: "GreaterEqual_2"
  op: "GreaterEqual"
  input: "sub_4"
  input: "GreaterEqual_2/y"
  attr {
    key: "T"
    value {
      type: DT_INT32
    }
  }
  attr {
    key: "_output_shapes"
    value {
      list {
        shape {
        }
      }
    }
  }
}
node {
  name: "GreaterEqual_3"
  op: "GreaterEqual"
  input: "sub_6"
  input: "GreaterEqual_3/y"
  attr {
    key: "T"
    value {
      type: DT_INT32
    }
  }
  attr {
    key: "_output_shapes"
    value {
      list {
        shape {
        }
      }
    }
  }
}
node {
  name: "LogicalAnd"
  op: "LogicalAnd"
  input: "GreaterEqual_2"
  input: "GreaterEqual_3"
  attr {
    key: "_output_shapes"
    value {
      list {
        shape {
        }
      }
    }
  }
}
node {
  name: "Assert_3/Assert"
  op: "Assert"
  input: "LogicalAnd"
  input: "Assert_3/Assert/data_0"
  attr {
    key: "T"
    value {
      list {
        type: DT_STRING
      }
    }
  }
  attr {
    key: "summarize"
    value {
      i: 3
    }
  }
}
node {
  name: "stack"
  op: "Pack"
  input: "stack/0"
  input: "sub_6"
  attr {
    key: "N"
    value {
      i: 2
    }
  }
  attr {
    key: "T"
    value {
      type: DT_INT32
    }
  }
  attr {
    key: "_output_shapes"
    value {
      list {
        shape {
          dim {
            size: 2
          }
        }
      }
    }
  }
  attr {
    key: "axis"
    value {
      i: 0
    }
  }
}
node {
  name: "stack_1"
  op: "Pack"
  input: "stack_1/0"
  input: "sub_4"
  attr {
    key: "N"
    value {
      i: 2
    }
  }
  attr {
    key: "T"
    value {
      type: DT_INT32
    }
  }
  attr {
    key: "_output_shapes"
    value {
      list {
        shape {
          dim {
            size: 2
          }
        }
      }
    }
  }
  attr {
    key: "axis"
    value {
      i: 0
    }
  }
}
node {
  name: "stack_3"
  op: "Pack"
  input: "stack"
  input: "stack_1"
  input: "stack_2"
  input: "^Assert_3/Assert"
  attr {
    key: "N"
    value {
      i: 3
    }
  }
  attr {
    key: "T"
    value {
      type: DT_INT32
    }
  }
  attr {
    key: "_output_shapes"
    value {
      list {
        shape {
          dim {
            size: 3
          }
          dim {
            size: 2
          }
        }
      }
    }
  }
  attr {
    key: "axis"
    value {
      i: 0
    }
  }
}
node {
  name: "Pad"
  op: "Pad"
  input: "sub_2"
  input: "stack_3"
  attr {
    key: "T"
    value {
      type: DT_FLOAT
    }
  }
  attr {
    key: "Tpaddings"
    value {
      type: DT_INT32
    }
  }
  attr {
    key: "_output_shapes"
    value {
      list {
        shape {
          dim {
            size: -1
          }
          dim {
            size: -1
          }
          dim {
            size: -1
          }
        }
      }
    }
  }
}
node {
  name: "add_2"
  op: "Add"
  input: "Pad"
  input: "Reshape"
  attr {
    key: "T"
    value {
      type: DT_FLOAT
    }
  }
  attr {
    key: "_output_shapes"
    value {
      list {
        shape {
          dim {
            size: 513
          }
          dim {
            size: 513
          }
          dim {
            size: 3
          }
        }
      }
    }
  }
}
node {
  name: "ExpandDims_1"
  op: "ExpandDims"
  input: "add_2"
  input: "ExpandDims_1/dim"
  attr {
    key: "T"
    value {
      type: DT_FLOAT
    }
  }
  attr {
    key: "Tdim"
    value {
      type: DT_INT32
    }
  }
  attr {
    key: "_output_shapes"
    value {
      list {
        shape {
          dim {
            size: 1
          }
          dim {
            size: 513
          }
          dim {
            size: 513
          }
          dim {
            size: 3
          }
        }
      }
    }
  }
}
node {
  name: "mul_1"
  op: "Mul"
  input: "mul_1/x"
  input: "ExpandDims_1"
  attr {
    key: "T"
    value {
      type: DT_FLOAT
    }
  }
  attr {
    key: "_output_shapes"
    value {
      list {
        shape {
          dim {
            size: 1
          }
          dim {
            size: 513
          }
          dim {
            size: 513
          }
          dim {
            size: 3
          }
        }
      }
    }
  }
}
node {
  name: "sub_7"
  op: "Sub"
  input: "mul_1"
  input: "sub_7/y"
  attr {
    key: "T"
    value {
      type: DT_FLOAT
    }
  }
  attr {
    key: "_output_shapes"
    value {
      list {
        shape {
          dim {
            size: 1
          }
          dim {
            size: 513
          }
          dim {
            size: 513
          }
          dim {
            size: 3
          }
        }
      }
    }
  }
}
node {
  name: "xception_65/Pad"
  op: "Pad"
  input: "sub_7"
  input: "xception_65/Pad/paddings"
  attr {
    key: "T"
    value {
      type: DT_FLOAT
    }
  }
  attr {
    key: "Tpaddings"
    value {
      type: DT_INT32
    }
  }
  attr {
    key: "_output_shapes"
    value {
      list {
        shape {
          dim {
            size: 1
          }
          dim {
            size: 515
          }
          dim {
            size: 515
          }
          dim {
            size: 3
          }
        }
      }
    }
  }
}
node {
  name: "xception_65/entry_flow/conv1_1/weights/read"
  op: "Identity"
  input: "xception_65/entry_flow/conv1_1/weights"
  attr {
    key: "T"
    value {
      type: DT_FLOAT
    }
  }
  attr {
    key: "_class"
    value {
      list {
        s: "loc:@xception_65/entry_flow/conv1_1/weights"
      }
    }
  }
  attr {
    key: "_output_shapes"
    value {
      list {
        shape {
          dim {
            size: 3
          }
          dim {
            size: 3
          }
          dim {
            size: 3
          }
          dim {
            size: 32
          }
        }
      }
    }
  }
}
node {
  name: "xception_65/entry_flow/conv1_1/Conv2D"
  op: "Conv2D"
  input: "xception_65/Pad"
  input: "xception_65/entry_flow/conv1_1/weights/read"
  attr {
    key: "T"
    value {
      type: DT_FLOAT
    }
  }
  attr {
    key: "_output_shapes"
    value {
      list {
        shape {
          dim {
            size: 1
          }
          dim {
            size: 257
          }
          dim {
            size: 257
          }
          dim {
            size: 32
          }
        }
      }
    }
  }
  attr {
    key: "data_format"
    value {
      s: "NHWC"
    }
  }
  attr {
    key: "dilations"
    value {
      list {
        i: 1
        i: 1
        i: 1
        i: 1
      }
    }
  }
  attr {
    key: "explicit_paddings"
    value {
      list {
      }
    }
  }
  attr {
    key: "padding"
    value {
      s: "VALID"
    }
  }
  attr {
    key: "strides"
    value {
      list {
        i: 1
        i: 2
        i: 2
        i: 1
      }
    }
  }
  attr {
    key: "use_cudnn_on_gpu"
    value {
      b: true
    }
  }
}
node {
  name: "xception_65/entry_flow/conv1_1/BatchNorm/gamma/read"
  op: "Identity"
  input: "xception_65/entry_flow/conv1_1/BatchNorm/gamma"
  attr {
    key: "T"
    value {
      type: DT_FLOAT
    }
  }
  attr {
    key: "_class"
    value {
      list {
        s: "loc:@xception_65/entry_flow/conv1_1/BatchNorm/gamma"
      }
    }
  }
  attr {
    key: "_output_shapes"
    value {
      list {
        shape {
          dim {
            size: 32
          }
        }
      }
    }
  }
}
node {
  name: "xception_65/entry_flow/conv1_1/BatchNorm/beta/read"
  op: "Identity"
  input: "xception_65/entry_flow/conv1_1/BatchNorm/beta"
  attr {
    key: "T"
    value {
      type: DT_FLOAT
    }
  }
  attr {
    key: "_class"
    value {
      list {
        s: "loc:@xception_65/entry_flow/conv1_1/BatchNorm/beta"
      }
    }
  }
  attr {
    key: "_output_shapes"
    value {
      list {
        shape {
          dim {
            size: 32
          }
        }
      }
    }
  }
}
node {
  name: "xception_65/entry_flow/conv1_1/BatchNorm/moving_mean/read"
  op: "Identity"
  input: "xception_65/entry_flow/conv1_1/BatchNorm/moving_mean"
  attr {
    key: "T"
    value {
      type: DT_FLOAT
    }
  }
  attr {
    key: "_class"
    value {
      list {
        s: "loc:@xception_65/entry_flow/conv1_1/BatchNorm/moving_mean"
      }
    }
  }
  attr {
    key: "_output_shapes"
    value {
      list {
        shape {
          dim {
            size: 32
          }
        }
      }
    }
  }
}
node {
  name: "xception_65/entry_flow/conv1_1/BatchNorm/moving_variance/read"
  op: "Identity"
  input: "xception_65/entry_flow/conv1_1/BatchNorm/moving_variance"
  attr {
    key: "T"
    value {
      type: DT_FLOAT
    }
  }
  attr {
    key: "_class"
    value {
      list {
        s: "loc:@xception_65/entry_flow/conv1_1/BatchNorm/moving_variance"
      }
    }
  }
  attr {
    key: "_output_shapes"
    value {
      list {
        shape {
          dim {
            size: 32
          }
        }
      }
    }
  }
}
node {
  name: "xception_65/entry_flow/conv1_1/BatchNorm/FusedBatchNorm"
  op: "FusedBatchNorm"
  input: "xception_65/entry_flow/conv1_1/Conv2D"
  input: "xception_65/entry_flow/conv1_1/BatchNorm/gamma/read"
  input: "xception_65/entry_flow/conv1_1/BatchNorm/beta/read"
  input: "xception_65/entry_flow/conv1_1/BatchNorm/moving_mean/read"
  input: "xception_65/entry_flow/conv1_1/BatchNorm/moving_variance/read"
  attr {
    key: "T"
    value {
      type: DT_FLOAT
    }
  }
  attr {
    key: "_output_shapes"
    value {
      list {
        shape {
          dim {
            size: 1
          }
          dim {
            size: 257
          }
          dim {
            size: 257
          }
          dim {
            size: 32
          }
        }
        shape {
          dim {
            size: 32
          }
        }
        shape {
          dim {
            size: 32
          }
        }
        shape {
          dim {
            size: 32
          }
        }
        shape {
          dim {
            size: 32
          }
        }
      }
    }
  }
  attr {
    key: "data_format"
    value {
      s: "NHWC"
    }
  }
  attr {
    key: "epsilon"
    value {
      f: 0.0010000000474974513
    }
  }
  attr {
    key: "exponential_avg_factor"
    value {
      f: 1.0
    }
  }
  attr {
    key: "is_training"
    value {
      b: false
    }
  }
}
node {
  name: "xception_65/entry_flow/conv1_1/Relu"
  op: "Relu"
  input: "xception_65/entry_flow/conv1_1/BatchNorm/FusedBatchNorm"
  attr {
    key: "T"
    value {
      type: DT_FLOAT
    }
  }
  attr {
    key: "_output_shapes"
    value {
      list {
        shape {
          dim {
            size: 1
          }
          dim {
            size: 257
          }
          dim {
            size: 257
          }
          dim {
            size: 32
          }
        }
      }
    }
  }
}
node {
  name: "xception_65/entry_flow/conv1_2/weights/read"
  op: "Identity"
  input: "xception_65/entry_flow/conv1_2/weights"
  attr {
    key: "T"
    value {
      type: DT_FLOAT
    }
  }
  attr {
    key: "_class"
    value {
      list {
        s: "loc:@xception_65/entry_flow/conv1_2/weights"
      }
    }
  }
  attr {
    key: "_output_shapes"
    value {
      list {
        shape {
          dim {
            size: 3
          }
          dim {
            size: 3
          }
          dim {
            size: 32
          }
          dim {
            size: 64
          }
        }
      }
    }
  }
}
node {
  name: "xception_65/entry_flow/conv1_2/Conv2D"
  op: "Conv2D"
  input: "xception_65/entry_flow/conv1_1/Relu"
  input: "xception_65/entry_flow/conv1_2/weights/read"
  attr {
    key: "T"
    value {
      type: DT_FLOAT
    }
  }
  attr {
    key: "_output_shapes"
    value {
      list {
        shape {
          dim {
            size: 1
          }
          dim {
            size: 257
          }
          dim {
            size: 257
          }
          dim {
            size: 64
          }
        }
      }
    }
  }
  attr {
    key: "data_format"
    value {
      s: "NHWC"
    }
  }
  attr {
    key: "dilations"
    value {
      list {
        i: 1
        i: 1
        i: 1
        i: 1
      }
    }
  }
  attr {
    key: "explicit_paddings"
    value {
      list {
      }
    }
  }
  attr {
    key: "padding"
    value {
      s: "SAME"
    }
  }
  attr {
    key: "strides"
    value {
      list {
        i: 1
        i: 1
        i: 1
        i: 1
      }
    }
  }
  attr {
    key: "use_cudnn_on_gpu"
    value {
      b: true
    }
  }
}
node {
  name: "xception_65/entry_flow/conv1_2/BatchNorm/gamma/read"
  op: "Identity"
  input: "xception_65/entry_flow/conv1_2/BatchNorm/gamma"
  attr {
    key: "T"
    value {
      type: DT_FLOAT
    }
  }
  attr {
    key: "_class"
    value {
      list {
        s: "loc:@xception_65/entry_flow/conv1_2/BatchNorm/gamma"
      }
    }
  }
  attr {
    key: "_output_shapes"
    value {
      list {
        shape {
          dim {
            size: 64
          }
        }
      }
    }
  }
}
node {
  name: "xception_65/entry_flow/conv1_2/BatchNorm/beta/read"
  op: "Identity"
  input: "xception_65/entry_flow/conv1_2/BatchNorm/beta"
  attr {
    key: "T"
    value {
      type: DT_FLOAT
    }
  }
  attr {
    key: "_class"
    value {
      list {
        s: "loc:@xception_65/entry_flow/conv1_2/BatchNorm/beta"
      }
    }
  }
  attr {
    key: "_output_shapes"
    value {
      list {
        shape {
          dim {
            size: 64
          }
        }
      }
    }
  }
}
node {
  name: "xception_65/entry_flow/conv1_2/BatchNorm/moving_mean/read"
  op: "Identity"
  input: "xception_65/entry_flow/conv1_2/BatchNorm/moving_mean"
  attr {
    key: "T"
    value {
      type: DT_FLOAT
    }
  }
  attr {
    key: "_class"
    value {
      list {
        s: "loc:@xception_65/entry_flow/conv1_2/BatchNorm/moving_mean"
      }
    }
  }
  attr {
    key: "_output_shapes"
    value {
      list {
        shape {
          dim {
            size: 64
          }
        }
      }
    }
  }
}
node {
  name: "xception_65/entry_flow/conv1_2/BatchNorm/moving_variance/read"
  op: "Identity"
  input: "xception_65/entry_flow/conv1_2/BatchNorm/moving_variance"
  attr {
    key: "T"
    value {
      type: DT_FLOAT
    }
  }
  attr {
    key: "_class"
    value {
      list {
        s: "loc:@xception_65/entry_flow/conv1_2/BatchNorm/moving_variance"
      }
    }
  }
  attr {
    key: "_output_shapes"
    value {
      list {
        shape {
          dim {
            size: 64
          }
        }
      }
    }
  }
}
node {
  name: "xception_65/entry_flow/conv1_2/BatchNorm/FusedBatchNorm"
  op: "FusedBatchNorm"
  input: "xception_65/entry_flow/conv1_2/Conv2D"
  input: "xception_65/entry_flow/conv1_2/BatchNorm/gamma/read"
  input: "xception_65/entry_flow/conv1_2/BatchNorm/beta/read"
  input: "xception_65/entry_flow/conv1_2/BatchNorm/moving_mean/read"
  input: "xception_65/entry_flow/conv1_2/BatchNorm/moving_variance/read"
  attr {
    key: "T"
    value {
      type: DT_FLOAT
    }
  }
  attr {
    key: "_output_shapes"
    value {
      list {
        shape {
          dim {
            size: 1
          }
          dim {
            size: 257
          }
          dim {
            size: 257
          }
          dim {
            size: 64
          }
        }
        shape {
          dim {
            size: 64
          }
        }
        shape {
          dim {
            size: 64
          }
        }
        shape {
          dim {
            size: 64
          }
        }
        shape {
          dim {
            size: 64
          }
        }
      }
    }
  }
  attr {
    key: "data_format"
    value {
      s: "NHWC"
    }
  }
  attr {
    key: "epsilon"
    value {
      f: 0.0010000000474974513
    }
  }
  attr {
    key: "exponential_avg_factor"
    value {
      f: 1.0
    }
  }
  attr {
    key: "is_training"
    value {
      b: false
    }
  }
}
node {
  name: "xception_65/entry_flow/conv1_2/Relu"
  op: "Relu"
  input: "xception_65/entry_flow/conv1_2/BatchNorm/FusedBatchNorm"
  attr {
    key: "T"
    value {
      type: DT_FLOAT
    }
  }
  attr {
    key: "_output_shapes"
    value {
      list {
        shape {
          dim {
            size: 1
          }
          dim {
            size: 257
          }
          dim {
            size: 257
          }
          dim {
            size: 64
          }
        }
      }
    }
  }
}
node {
  name: "xception_65/entry_flow/block1/unit_1/xception_module/Relu"
  op: "Relu"
  input: "xception_65/entry_flow/conv1_2/Relu"
  attr {
    key: "T"
    value {
      type: DT_FLOAT
    }
  }
  attr {
    key: "_output_shapes"
    value {
      list {
        shape {
          dim {
            size: 1
          }
          dim {
            size: 257
          }
          dim {
            size: 257
          }
          dim {
            size: 64
          }
        }
      }
    }
  }
}
node {
  name: "xception_65/entry_flow/block1/unit_1/xception_module/separable_conv1_depthwise/depthwise_weights/read"
  op: "Identity"
  input: "xception_65/entry_flow/block1/unit_1/xception_module/separable_conv1_depthwise/depthwise_weights"
  attr {
    key: "T"
    value {
      type: DT_FLOAT
    }
  }
  attr {
    key: "_class"
    value {
      list {
        s: "loc:@xception_65/entry_flow/block1/unit_1/xception_module/separable_conv1_depthwise/depthwise_weights"
      }
    }
  }
  attr {
    key: "_output_shapes"
    value {
      list {
        shape {
          dim {
            size: 3
          }
          dim {
            size: 3
          }
          dim {
            size: 64
          }
          dim {
            size: 1
          }
        }
      }
    }
  }
}
node {
  name: "xception_65/entry_flow/block1/unit_1/xception_module/separable_conv1_depthwise/depthwise"
  op: "DepthwiseConv2dNative"
  input: "xception_65/entry_flow/block1/unit_1/xception_module/Relu"
  input: "xception_65/entry_flow/block1/unit_1/xception_module/separable_conv1_depthwise/depthwise_weights/read"
  attr {
    key: "T"
    value {
      type: DT_FLOAT
    }
  }
  attr {
    key: "_output_shapes"
    value {
      list {
        shape {
          dim {
            size: 1
          }
          dim {
            size: 257
          }
          dim {
            size: 257
          }
          dim {
            size: 64
          }
        }
      }
    }
  }
  attr {
    key: "data_format"
    value {
      s: "NHWC"
    }
  }
  attr {
    key: "dilations"
    value {
      list {
        i: 1
        i: 1
        i: 1
        i: 1
      }
    }
  }
  attr {
    key: "explicit_paddings"
    value {
      list {
      }
    }
  }
  attr {
    key: "padding"
    value {
      s: "SAME"
    }
  }
  attr {
    key: "strides"
    value {
      list {
        i: 1
        i: 1
        i: 1
        i: 1
      }
    }
  }
}
node {
  name: "xception_65/entry_flow/block1/unit_1/xception_module/separable_conv1_depthwise/BatchNorm/gamma/read"
  op: "Identity"
  input: "xception_65/entry_flow/block1/unit_1/xception_module/separable_conv1_depthwise/BatchNorm/gamma"
  attr {
    key: "T"
    value {
      type: DT_FLOAT
    }
  }
  attr {
    key: "_class"
    value {
      list {
        s: "loc:@xception_65/entry_flow/block1/unit_1/xception_module/separable_conv1_depthwise/BatchNorm/gamma"
      }
    }
  }
  attr {
    key: "_output_shapes"
    value {
      list {
        shape {
          dim {
            size: 64
          }
        }
      }
    }
  }
}
node {
  name: "xception_65/entry_flow/block1/unit_1/xception_module/separable_conv1_depthwise/BatchNorm/beta/read"
  op: "Identity"
  input: "xception_65/entry_flow/block1/unit_1/xception_module/separable_conv1_depthwise/BatchNorm/beta"
  attr {
    key: "T"
    value {
      type: DT_FLOAT
    }
  }
  attr {
    key: "_class"
    value {
      list {
        s: "loc:@xception_65/entry_flow/block1/unit_1/xception_module/separable_conv1_depthwise/BatchNorm/beta"
      }
    }
  }
  attr {
    key: "_output_shapes"
    value {
      list {
        shape {
          dim {
            size: 64
          }
        }
      }
    }
  }
}
node {
  name: "xception_65/entry_flow/block1/unit_1/xception_module/separable_conv1_depthwise/BatchNorm/moving_mean/read"
  op: "Identity"
  input: "xception_65/entry_flow/block1/unit_1/xception_module/separable_conv1_depthwise/BatchNorm/moving_mean"
  attr {
    key: "T"
    value {
      type: DT_FLOAT
    }
  }
  attr {
    key: "_class"
    value {
      list {
        s: "loc:@xception_65/entry_flow/block1/unit_1/xception_module/separable_conv1_depthwise/BatchNorm/moving_mean"
      }
    }
  }
  attr {
    key: "_output_shapes"
    value {
      list {
        shape {
          dim {
            size: 64
          }
        }
      }
    }
  }
}
node {
  name: "xception_65/entry_flow/block1/unit_1/xception_module/separable_conv1_depthwise/BatchNorm/moving_variance/read"
  op: "Identity"
  input: "xception_65/entry_flow/block1/unit_1/xception_module/separable_conv1_depthwise/BatchNorm/moving_variance"
  attr {
    key: "T"
    value {
      type: DT_FLOAT
    }
  }
  attr {
    key: "_class"
    value {
      list {
        s: "loc:@xception_65/entry_flow/block1/unit_1/xception_module/separable_conv1_depthwise/BatchNorm/moving_variance"
      }
    }
  }
  attr {
    key: "_output_shapes"
    value {
      list {
        shape {
          dim {
            size: 64
          }
        }
      }
    }
  }
}
node {
  name: "xception_65/entry_flow/block1/unit_1/xception_module/separable_conv1_depthwise/BatchNorm/FusedBatchNorm"
  op: "FusedBatchNorm"
  input: "xception_65/entry_flow/block1/unit_1/xception_module/separable_conv1_depthwise/depthwise"
  input: "xception_65/entry_flow/block1/unit_1/xception_module/separable_conv1_depthwise/BatchNorm/gamma/read"
  input: "xception_65/entry_flow/block1/unit_1/xception_module/separable_conv1_depthwise/BatchNorm/beta/read"
  input: "xception_65/entry_flow/block1/unit_1/xception_module/separable_conv1_depthwise/BatchNorm/moving_mean/read"
  input: "xception_65/entry_flow/block1/unit_1/xception_module/separable_conv1_depthwise/BatchNorm/moving_variance/read"
  attr {
    key: "T"
    value {
      type: DT_FLOAT
    }
  }
  attr {
    key: "_output_shapes"
    value {
      list {
        shape {
          dim {
            size: 1
          }
          dim {
            size: 257
          }
          dim {
            size: 257
          }
          dim {
            size: 64
          }
        }
        shape {
          dim {
            size: 64
          }
        }
        shape {
          dim {
            size: 64
          }
        }
        shape {
          dim {
            size: 64
          }
        }
        shape {
          dim {
            size: 64
          }
        }
      }
    }
  }
  attr {
    key: "data_format"
    value {
      s: "NHWC"
    }
  }
  attr {
    key: "epsilon"
    value {
      f: 0.0010000000474974513
    }
  }
  attr {
    key: "exponential_avg_factor"
    value {
      f: 1.0
    }
  }
  attr {
    key: "is_training"
    value {
      b: false
    }
  }
}
node {
  name: "xception_65/entry_flow/block1/unit_1/xception_module/separable_conv1_pointwise/weights/read"
  op: "Identity"
  input: "xception_65/entry_flow/block1/unit_1/xception_module/separable_conv1_pointwise/weights"
  attr {
    key: "T"
    value {
      type: DT_FLOAT
    }
  }
  attr {
    key: "_class"
    value {
      list {
        s: "loc:@xception_65/entry_flow/block1/unit_1/xception_module/separable_conv1_pointwise/weights"
      }
    }
  }
  attr {
    key: "_output_shapes"
    value {
      list {
        shape {
          dim {
            size: 1
          }
          dim {
            size: 1
          }
          dim {
            size: 64
          }
          dim {
            size: 128
          }
        }
      }
    }
  }
}
node {
  name: "xception_65/entry_flow/block1/unit_1/xception_module/separable_conv1_pointwise/Conv2D"
  op: "Conv2D"
  input: "xception_65/entry_flow/block1/unit_1/xception_module/separable_conv1_depthwise/BatchNorm/FusedBatchNorm"
  input: "xception_65/entry_flow/block1/unit_1/xception_module/separable_conv1_pointwise/weights/read"
  attr {
    key: "T"
    value {
      type: DT_FLOAT
    }
  }
  attr {
    key: "_output_shapes"
    value {
      list {
        shape {
          dim {
            size: 1
          }
          dim {
            size: 257
          }
          dim {
            size: 257
          }
          dim {
            size: 128
          }
        }
      }
    }
  }
  attr {
    key: "data_format"
    value {
      s: "NHWC"
    }
  }
  attr {
    key: "dilations"
    value {
      list {
        i: 1
        i: 1
        i: 1
        i: 1
      }
    }
  }
  attr {
    key: "explicit_paddings"
    value {
      list {
      }
    }
  }
  attr {
    key: "padding"
    value {
      s: "SAME"
    }
  }
  attr {
    key: "strides"
    value {
      list {
        i: 1
        i: 1
        i: 1
        i: 1
      }
    }
  }
  attr {
    key: "use_cudnn_on_gpu"
    value {
      b: true
    }
  }
}
node {
  name: "xception_65/entry_flow/block1/unit_1/xception_module/separable_conv1_pointwise/BatchNorm/gamma/read"
  op: "Identity"
  input: "xception_65/entry_flow/block1/unit_1/xception_module/separable_conv1_pointwise/BatchNorm/gamma"
  attr {
    key: "T"
    value {
      type: DT_FLOAT
    }
  }
  attr {
    key: "_class"
    value {
      list {
        s: "loc:@xception_65/entry_flow/block1/unit_1/xception_module/separable_conv1_pointwise/BatchNorm/gamma"
      }
    }
  }
  attr {
    key: "_output_shapes"
    value {
      list {
        shape {
          dim {
            size: 128
          }
        }
      }
    }
  }
}
node {
  name: "xception_65/entry_flow/block1/unit_1/xception_module/separable_conv1_pointwise/BatchNorm/beta/read"
  op: "Identity"
  input: "xception_65/entry_flow/block1/unit_1/xception_module/separable_conv1_pointwise/BatchNorm/beta"
  attr {
    key: "T"
    value {
      type: DT_FLOAT
    }
  }
  attr {
    key: "_class"
    value {
      list {
        s: "loc:@xception_65/entry_flow/block1/unit_1/xception_module/separable_conv1_pointwise/BatchNorm/beta"
      }
    }
  }
  attr {
    key: "_output_shapes"
    value {
      list {
        shape {
          dim {
            size: 128
          }
        }
      }
    }
  }
}
node {
  name: "xception_65/entry_flow/block1/unit_1/xception_module/separable_conv1_pointwise/BatchNorm/moving_mean/read"
  op: "Identity"
  input: "xception_65/entry_flow/block1/unit_1/xception_module/separable_conv1_pointwise/BatchNorm/moving_mean"
  attr {
    key: "T"
    value {
      type: DT_FLOAT
    }
  }
  attr {
    key: "_class"
    value {
      list {
        s: "loc:@xception_65/entry_flow/block1/unit_1/xception_module/separable_conv1_pointwise/BatchNorm/moving_mean"
      }
    }
  }
  attr {
    key: "_output_shapes"
    value {
      list {
        shape {
          dim {
            size: 128
          }
        }
      }
    }
  }
}
node {
  name: "xception_65/entry_flow/block1/unit_1/xception_module/separable_conv1_pointwise/BatchNorm/moving_variance/read"
  op: "Identity"
  input: "xception_65/entry_flow/block1/unit_1/xception_module/separable_conv1_pointwise/BatchNorm/moving_variance"
  attr {
    key: "T"
    value {
      type: DT_FLOAT
    }
  }
  attr {
    key: "_class"
    value {
      list {
        s: "loc:@xception_65/entry_flow/block1/unit_1/xception_module/separable_conv1_pointwise/BatchNorm/moving_variance"
      }
    }
  }
  attr {
    key: "_output_shapes"
    value {
      list {
        shape {
          dim {
            size: 128
          }
        }
      }
    }
  }
}
node {
  name: "xception_65/entry_flow/block1/unit_1/xception_module/separable_conv1_pointwise/BatchNorm/FusedBatchNorm"
  op: "FusedBatchNorm"
  input: "xception_65/entry_flow/block1/unit_1/xception_module/separable_conv1_pointwise/Conv2D"
  input: "xception_65/entry_flow/block1/unit_1/xception_module/separable_conv1_pointwise/BatchNorm/gamma/read"
  input: "xception_65/entry_flow/block1/unit_1/xception_module/separable_conv1_pointwise/BatchNorm/beta/read"
  input: "xception_65/entry_flow/block1/unit_1/xception_module/separable_conv1_pointwise/BatchNorm/moving_mean/read"
  input: "xception_65/entry_flow/block1/unit_1/xception_module/separable_conv1_pointwise/BatchNorm/moving_variance/read"
  attr {
    key: "T"
    value {
      type: DT_FLOAT
    }
  }
  attr {
    key: "_output_shapes"
    value {
      list {
        shape {
          dim {
            size: 1
          }
          dim {
            size: 257
          }
          dim {
            size: 257
          }
          dim {
            size: 128
          }
        }
        shape {
          dim {
            size: 128
          }
        }
        shape {
          dim {
            size: 128
          }
        }
        shape {
          dim {
            size: 128
          }
        }
        shape {
          dim {
            size: 128
          }
        }
      }
    }
  }
  attr {
    key: "data_format"
    value {
      s: "NHWC"
    }
  }
  attr {
    key: "epsilon"
    value {
      f: 0.0010000000474974513
    }
  }
  attr {
    key: "exponential_avg_factor"
    value {
      f: 1.0
    }
  }
  attr {
    key: "is_training"
    value {
      b: false
    }
  }
}
node {
  name: "xception_65/entry_flow/block1/unit_1/xception_module/Relu_1"
  op: "Relu"
  input: "xception_65/entry_flow/block1/unit_1/xception_module/separable_conv1_pointwise/BatchNorm/FusedBatchNorm"
  attr {
    key: "T"
    value {
      type: DT_FLOAT
    }
  }
  attr {
    key: "_output_shapes"
    value {
      list {
        shape {
          dim {
            size: 1
          }
          dim {
            size: 257
          }
          dim {
            size: 257
          }
          dim {
            size: 128
          }
        }
      }
    }
  }
}
node {
  name: "xception_65/entry_flow/block1/unit_1/xception_module/separable_conv2_depthwise/depthwise_weights/read"
  op: "Identity"
  input: "xception_65/entry_flow/block1/unit_1/xception_module/separable_conv2_depthwise/depthwise_weights"
  attr {
    key: "T"
    value {
      type: DT_FLOAT
    }
  }
  attr {
    key: "_class"
    value {
      list {
        s: "loc:@xception_65/entry_flow/block1/unit_1/xception_module/separable_conv2_depthwise/depthwise_weights"
      }
    }
  }
  attr {
    key: "_output_shapes"
    value {
      list {
        shape {
          dim {
            size: 3
          }
          dim {
            size: 3
          }
          dim {
            size: 128
          }
          dim {
            size: 1
          }
        }
      }
    }
  }
}
node {
  name: "xception_65/entry_flow/block1/unit_1/xception_module/separable_conv2_depthwise/depthwise"
  op: "DepthwiseConv2dNative"
  input: "xception_65/entry_flow/block1/unit_1/xception_module/Relu_1"
  input: "xception_65/entry_flow/block1/unit_1/xception_module/separable_conv2_depthwise/depthwise_weights/read"
  attr {
    key: "T"
    value {
      type: DT_FLOAT
    }
  }
  attr {
    key: "_output_shapes"
    value {
      list {
        shape {
          dim {
            size: 1
          }
          dim {
            size: 257
          }
          dim {
            size: 257
          }
          dim {
            size: 128
          }
        }
      }
    }
  }
  attr {
    key: "data_format"
    value {
      s: "NHWC"
    }
  }
  attr {
    key: "dilations"
    value {
      list {
        i: 1
        i: 1
        i: 1
        i: 1
      }
    }
  }
  attr {
    key: "explicit_paddings"
    value {
      list {
      }
    }
  }
  attr {
    key: "padding"
    value {
      s: "SAME"
    }
  }
  attr {
    key: "strides"
    value {
      list {
        i: 1
        i: 1
        i: 1
        i: 1
      }
    }
  }
}
node {
  name: "xception_65/entry_flow/block1/unit_1/xception_module/separable_conv2_depthwise/BatchNorm/gamma/read"
  op: "Identity"
  input: "xception_65/entry_flow/block1/unit_1/xception_module/separable_conv2_depthwise/BatchNorm/gamma"
  attr {
    key: "T"
    value {
      type: DT_FLOAT
    }
  }
  attr {
    key: "_class"
    value {
      list {
        s: "loc:@xception_65/entry_flow/block1/unit_1/xception_module/separable_conv2_depthwise/BatchNorm/gamma"
      }
    }
  }
  attr {
    key: "_output_shapes"
    value {
      list {
        shape {
          dim {
            size: 128
          }
        }
      }
    }
  }
}
node {
  name: "xception_65/entry_flow/block1/unit_1/xception_module/separable_conv2_depthwise/BatchNorm/beta/read"
  op: "Identity"
  input: "xception_65/entry_flow/block1/unit_1/xception_module/separable_conv2_depthwise/BatchNorm/beta"
  attr {
    key: "T"
    value {
      type: DT_FLOAT
    }
  }
  attr {
    key: "_class"
    value {
      list {
        s: "loc:@xception_65/entry_flow/block1/unit_1/xception_module/separable_conv2_depthwise/BatchNorm/beta"
      }
    }
  }
  attr {
    key: "_output_shapes"
    value {
      list {
        shape {
          dim {
            size: 128
          }
        }
      }
    }
  }
}
node {
  name: "xception_65/entry_flow/block1/unit_1/xception_module/separable_conv2_depthwise/BatchNorm/moving_mean/read"
  op: "Identity"
  input: "xception_65/entry_flow/block1/unit_1/xception_module/separable_conv2_depthwise/BatchNorm/moving_mean"
  attr {
    key: "T"
    value {
      type: DT_FLOAT
    }
  }
  attr {
    key: "_class"
    value {
      list {
        s: "loc:@xception_65/entry_flow/block1/unit_1/xception_module/separable_conv2_depthwise/BatchNorm/moving_mean"
      }
    }
  }
  attr {
    key: "_output_shapes"
    value {
      list {
        shape {
          dim {
            size: 128
          }
        }
      }
    }
  }
}
node {
  name: "xception_65/entry_flow/block1/unit_1/xception_module/separable_conv2_depthwise/BatchNorm/moving_variance/read"
  op: "Identity"
  input: "xception_65/entry_flow/block1/unit_1/xception_module/separable_conv2_depthwise/BatchNorm/moving_variance"
  attr {
    key: "T"
    value {
      type: DT_FLOAT
    }
  }
  attr {
    key: "_class"
    value {
      list {
        s: "loc:@xception_65/entry_flow/block1/unit_1/xception_module/separable_conv2_depthwise/BatchNorm/moving_variance"
      }
    }
  }
  attr {
    key: "_output_shapes"
    value {
      list {
        shape {
          dim {
            size: 128
          }
        }
      }
    }
  }
}
node {
  name: "xception_65/entry_flow/block1/unit_1/xception_module/separable_conv2_depthwise/BatchNorm/FusedBatchNorm"
  op: "FusedBatchNorm"
  input: "xception_65/entry_flow/block1/unit_1/xception_module/separable_conv2_depthwise/depthwise"
  input: "xception_65/entry_flow/block1/unit_1/xception_module/separable_conv2_depthwise/BatchNorm/gamma/read"
  input: "xception_65/entry_flow/block1/unit_1/xception_module/separable_conv2_depthwise/BatchNorm/beta/read"
  input: "xception_65/entry_flow/block1/unit_1/xception_module/separable_conv2_depthwise/BatchNorm/moving_mean/read"
  input: "xception_65/entry_flow/block1/unit_1/xception_module/separable_conv2_depthwise/BatchNorm/moving_variance/read"
  attr {
    key: "T"
    value {
      type: DT_FLOAT
    }
  }
  attr {
    key: "_output_shapes"
    value {
      list {
        shape {
          dim {
            size: 1
          }
          dim {
            size: 257
          }
          dim {
            size: 257
          }
          dim {
            size: 128
          }
        }
        shape {
          dim {
            size: 128
          }
        }
        shape {
          dim {
            size: 128
          }
        }
        shape {
          dim {
            size: 128
          }
        }
        shape {
          dim {
            size: 128
          }
        }
      }
    }
  }
  attr {
    key: "data_format"
    value {
      s: "NHWC"
    }
  }
  attr {
    key: "epsilon"
    value {
      f: 0.0010000000474974513
    }
  }
  attr {
    key: "exponential_avg_factor"
    value {
      f: 1.0
    }
  }
  attr {
    key: "is_training"
    value {
      b: false
    }
  }
}
node {
  name: "xception_65/entry_flow/block1/unit_1/xception_module/separable_conv2_pointwise/weights/read"
  op: "Identity"
  input: "xception_65/entry_flow/block1/unit_1/xception_module/separable_conv2_pointwise/weights"
  attr {
    key: "T"
    value {
      type: DT_FLOAT
    }
  }
  attr {
    key: "_class"
    value {
      list {
        s: "loc:@xception_65/entry_flow/block1/unit_1/xception_module/separable_conv2_pointwise/weights"
      }
    }
  }
  attr {
    key: "_output_shapes"
    value {
      list {
        shape {
          dim {
            size: 1
          }
          dim {
            size: 1
          }
          dim {
            size: 128
          }
          dim {
            size: 128
          }
        }
      }
    }
  }
}
node {
  name: "xception_65/entry_flow/block1/unit_1/xception_module/separable_conv2_pointwise/Conv2D"
  op: "Conv2D"
  input: "xception_65/entry_flow/block1/unit_1/xception_module/separable_conv2_depthwise/BatchNorm/FusedBatchNorm"
  input: "xception_65/entry_flow/block1/unit_1/xception_module/separable_conv2_pointwise/weights/read"
  attr {
    key: "T"
    value {
      type: DT_FLOAT
    }
  }
  attr {
    key: "_output_shapes"
    value {
      list {
        shape {
          dim {
            size: 1
          }
          dim {
            size: 257
          }
          dim {
            size: 257
          }
          dim {
            size: 128
          }
        }
      }
    }
  }
  attr {
    key: "data_format"
    value {
      s: "NHWC"
    }
  }
  attr {
    key: "dilations"
    value {
      list {
        i: 1
        i: 1
        i: 1
        i: 1
      }
    }
  }
  attr {
    key: "explicit_paddings"
    value {
      list {
      }
    }
  }
  attr {
    key: "padding"
    value {
      s: "SAME"
    }
  }
  attr {
    key: "strides"
    value {
      list {
        i: 1
        i: 1
        i: 1
        i: 1
      }
    }
  }
  attr {
    key: "use_cudnn_on_gpu"
    value {
      b: true
    }
  }
}
node {
  name: "xception_65/entry_flow/block1/unit_1/xception_module/separable_conv2_pointwise/BatchNorm/gamma/read"
  op: "Identity"
  input: "xception_65/entry_flow/block1/unit_1/xception_module/separable_conv2_pointwise/BatchNorm/gamma"
  attr {
    key: "T"
    value {
      type: DT_FLOAT
    }
  }
  attr {
    key: "_class"
    value {
      list {
        s: "loc:@xception_65/entry_flow/block1/unit_1/xception_module/separable_conv2_pointwise/BatchNorm/gamma"
      }
    }
  }
  attr {
    key: "_output_shapes"
    value {
      list {
        shape {
          dim {
            size: 128
          }
        }
      }
    }
  }
}
node {
  name: "xception_65/entry_flow/block1/unit_1/xception_module/separable_conv2_pointwise/BatchNorm/beta/read"
  op: "Identity"
  input: "xception_65/entry_flow/block1/unit_1/xception_module/separable_conv2_pointwise/BatchNorm/beta"
  attr {
    key: "T"
    value {
      type: DT_FLOAT
    }
  }
  attr {
    key: "_class"
    value {
      list {
        s: "loc:@xception_65/entry_flow/block1/unit_1/xception_module/separable_conv2_pointwise/BatchNorm/beta"
      }
    }
  }
  attr {
    key: "_output_shapes"
    value {
      list {
        shape {
          dim {
            size: 128
          }
        }
      }
    }
  }
}
node {
  name: "xception_65/entry_flow/block1/unit_1/xception_module/separable_conv2_pointwise/BatchNorm/moving_mean/read"
  op: "Identity"
  input: "xception_65/entry_flow/block1/unit_1/xception_module/separable_conv2_pointwise/BatchNorm/moving_mean"
  attr {
    key: "T"
    value {
      type: DT_FLOAT
    }
  }
  attr {
    key: "_class"
    value {
      list {
        s: "loc:@xception_65/entry_flow/block1/unit_1/xception_module/separable_conv2_pointwise/BatchNorm/moving_mean"
      }
    }
  }
  attr {
    key: "_output_shapes"
    value {
      list {
        shape {
          dim {
            size: 128
          }
        }
      }
    }
  }
}
node {
  name: "xception_65/entry_flow/block1/unit_1/xception_module/separable_conv2_pointwise/BatchNorm/moving_variance/read"
  op: "Identity"
  input: "xception_65/entry_flow/block1/unit_1/xception_module/separable_conv2_pointwise/BatchNorm/moving_variance"
  attr {
    key: "T"
    value {
      type: DT_FLOAT
    }
  }
  attr {
    key: "_class"
    value {
      list {
        s: "loc:@xception_65/entry_flow/block1/unit_1/xception_module/separable_conv2_pointwise/BatchNorm/moving_variance"
      }
    }
  }
  attr {
    key: "_output_shapes"
    value {
      list {
        shape {
          dim {
            size: 128
          }
        }
      }
    }
  }
}
node {
  name: "xception_65/entry_flow/block1/unit_1/xception_module/separable_conv2_pointwise/BatchNorm/FusedBatchNorm"
  op: "FusedBatchNorm"
  input: "xception_65/entry_flow/block1/unit_1/xception_module/separable_conv2_pointwise/Conv2D"
  input: "xception_65/entry_flow/block1/unit_1/xception_module/separable_conv2_pointwise/BatchNorm/gamma/read"
  input: "xception_65/entry_flow/block1/unit_1/xception_module/separable_conv2_pointwise/BatchNorm/beta/read"
  input: "xception_65/entry_flow/block1/unit_1/xception_module/separable_conv2_pointwise/BatchNorm/moving_mean/read"
  input: "xception_65/entry_flow/block1/unit_1/xception_module/separable_conv2_pointwise/BatchNorm/moving_variance/read"
  attr {
    key: "T"
    value {
      type: DT_FLOAT
    }
  }
  attr {
    key: "_output_shapes"
    value {
      list {
        shape {
          dim {
            size: 1
          }
          dim {
            size: 257
          }
          dim {
            size: 257
          }
          dim {
            size: 128
          }
        }
        shape {
          dim {
            size: 128
          }
        }
        shape {
          dim {
            size: 128
          }
        }
        shape {
          dim {
            size: 128
          }
        }
        shape {
          dim {
            size: 128
          }
        }
      }
    }
  }
  attr {
    key: "data_format"
    value {
      s: "NHWC"
    }
  }
  attr {
    key: "epsilon"
    value {
      f: 0.0010000000474974513
    }
  }
  attr {
    key: "exponential_avg_factor"
    value {
      f: 1.0
    }
  }
  attr {
    key: "is_training"
    value {
      b: false
    }
  }
}
node {
  name: "xception_65/entry_flow/block1/unit_1/xception_module/Relu_2"
  op: "Relu"
  input: "xception_65/entry_flow/block1/unit_1/xception_module/separable_conv2_pointwise/BatchNorm/FusedBatchNorm"
  attr {
    key: "T"
    value {
      type: DT_FLOAT
    }
  }
  attr {
    key: "_output_shapes"
    value {
      list {
        shape {
          dim {
            size: 1
          }
          dim {
            size: 257
          }
          dim {
            size: 257
          }
          dim {
            size: 128
          }
        }
      }
    }
  }
}
node {
  name: "xception_65/entry_flow/block1/unit_1/xception_module/Pad"
  op: "Pad"
  input: "xception_65/entry_flow/block1/unit_1/xception_module/Relu_2"
  input: "xception_65/entry_flow/block1/unit_1/xception_module/Pad/paddings"
  attr {
    key: "T"
    value {
      type: DT_FLOAT
    }
  }
  attr {
    key: "Tpaddings"
    value {
      type: DT_INT32
    }
  }
  attr {
    key: "_output_shapes"
    value {
      list {
        shape {
          dim {
            size: 1
          }
          dim {
            size: 259
          }
          dim {
            size: 259
          }
          dim {
            size: 128
          }
        }
      }
    }
  }
}
node {
  name: "xception_65/entry_flow/block1/unit_1/xception_module/separable_conv3_depthwise/depthwise_weights/read"
  op: "Identity"
  input: "xception_65/entry_flow/block1/unit_1/xception_module/separable_conv3_depthwise/depthwise_weights"
  attr {
    key: "T"
    value {
      type: DT_FLOAT
    }
  }
  attr {
    key: "_class"
    value {
      list {
        s: "loc:@xception_65/entry_flow/block1/unit_1/xception_module/separable_conv3_depthwise/depthwise_weights"
      }
    }
  }
  attr {
    key: "_output_shapes"
    value {
      list {
        shape {
          dim {
            size: 3
          }
          dim {
            size: 3
          }
          dim {
            size: 128
          }
          dim {
            size: 1
          }
        }
      }
    }
  }
}
node {
  name: "xception_65/entry_flow/block1/unit_1/xception_module/separable_conv3_depthwise/depthwise"
  op: "DepthwiseConv2dNative"
  input: "xception_65/entry_flow/block1/unit_1/xception_module/Pad"
  input: "xception_65/entry_flow/block1/unit_1/xception_module/separable_conv3_depthwise/depthwise_weights/read"
  attr {
    key: "T"
    value {
      type: DT_FLOAT
    }
  }
  attr {
    key: "_output_shapes"
    value {
      list {
        shape {
          dim {
            size: 1
          }
          dim {
            size: 129
          }
          dim {
            size: 129
          }
          dim {
            size: 128
          }
        }
      }
    }
  }
  attr {
    key: "data_format"
    value {
      s: "NHWC"
    }
  }
  attr {
    key: "dilations"
    value {
      list {
        i: 1
        i: 1
        i: 1
        i: 1
      }
    }
  }
  attr {
    key: "explicit_paddings"
    value {
      list {
      }
    }
  }
  attr {
    key: "padding"
    value {
      s: "VALID"
    }
  }
  attr {
    key: "strides"
    value {
      list {
        i: 1
        i: 2
        i: 2
        i: 1
      }
    }
  }
}
node {
  name: "xception_65/entry_flow/block1/unit_1/xception_module/separable_conv3_depthwise/BatchNorm/gamma/read"
  op: "Identity"
  input: "xception_65/entry_flow/block1/unit_1/xception_module/separable_conv3_depthwise/BatchNorm/gamma"
  attr {
    key: "T"
    value {
      type: DT_FLOAT
    }
  }
  attr {
    key: "_class"
    value {
      list {
        s: "loc:@xception_65/entry_flow/block1/unit_1/xception_module/separable_conv3_depthwise/BatchNorm/gamma"
      }
    }
  }
  attr {
    key: "_output_shapes"
    value {
      list {
        shape {
          dim {
            size: 128
          }
        }
      }
    }
  }
}
node {
  name: "xception_65/entry_flow/block1/unit_1/xception_module/separable_conv3_depthwise/BatchNorm/beta/read"
  op: "Identity"
  input: "xception_65/entry_flow/block1/unit_1/xception_module/separable_conv3_depthwise/BatchNorm/beta"
  attr {
    key: "T"
    value {
      type: DT_FLOAT
    }
  }
  attr {
    key: "_class"
    value {
      list {
        s: "loc:@xception_65/entry_flow/block1/unit_1/xception_module/separable_conv3_depthwise/BatchNorm/beta"
      }
    }
  }
  attr {
    key: "_output_shapes"
    value {
      list {
        shape {
          dim {
            size: 128
          }
        }
      }
    }
  }
}
node {
  name: "xception_65/entry_flow/block1/unit_1/xception_module/separable_conv3_depthwise/BatchNorm/moving_mean/read"
  op: "Identity"
  input: "xception_65/entry_flow/block1/unit_1/xception_module/separable_conv3_depthwise/BatchNorm/moving_mean"
  attr {
    key: "T"
    value {
      type: DT_FLOAT
    }
  }
  attr {
    key: "_class"
    value {
      list {
        s: "loc:@xception_65/entry_flow/block1/unit_1/xception_module/separable_conv3_depthwise/BatchNorm/moving_mean"
      }
    }
  }
  attr {
    key: "_output_shapes"
    value {
      list {
        shape {
          dim {
            size: 128
          }
        }
      }
    }
  }
}
node {
  name: "xception_65/entry_flow/block1/unit_1/xception_module/separable_conv3_depthwise/BatchNorm/moving_variance/read"
  op: "Identity"
  input: "xception_65/entry_flow/block1/unit_1/xception_module/separable_conv3_depthwise/BatchNorm/moving_variance"
  attr {
    key: "T"
    value {
      type: DT_FLOAT
    }
  }
  attr {
    key: "_class"
    value {
      list {
        s: "loc:@xception_65/entry_flow/block1/unit_1/xception_module/separable_conv3_depthwise/BatchNorm/moving_variance"
      }
    }
  }
  attr {
    key: "_output_shapes"
    value {
      list {
        shape {
          dim {
            size: 128
          }
        }
      }
    }
  }
}
node {
  name: "xception_65/entry_flow/block1/unit_1/xception_module/separable_conv3_depthwise/BatchNorm/FusedBatchNorm"
  op: "FusedBatchNorm"
  input: "xception_65/entry_flow/block1/unit_1/xception_module/separable_conv3_depthwise/depthwise"
  input: "xception_65/entry_flow/block1/unit_1/xception_module/separable_conv3_depthwise/BatchNorm/gamma/read"
  input: "xception_65/entry_flow/block1/unit_1/xception_module/separable_conv3_depthwise/BatchNorm/beta/read"
  input: "xception_65/entry_flow/block1/unit_1/xception_module/separable_conv3_depthwise/BatchNorm/moving_mean/read"
  input: "xception_65/entry_flow/block1/unit_1/xception_module/separable_conv3_depthwise/BatchNorm/moving_variance/read"
  attr {
    key: "T"
    value {
      type: DT_FLOAT
    }
  }
  attr {
    key: "_output_shapes"
    value {
      list {
        shape {
          dim {
            size: 1
          }
          dim {
            size: 129
          }
          dim {
            size: 129
          }
          dim {
            size: 128
          }
        }
        shape {
          dim {
            size: 128
          }
        }
        shape {
          dim {
            size: 128
          }
        }
        shape {
          dim {
            size: 128
          }
        }
        shape {
          dim {
            size: 128
          }
        }
      }
    }
  }
  attr {
    key: "data_format"
    value {
      s: "NHWC"
    }
  }
  attr {
    key: "epsilon"
    value {
      f: 0.0010000000474974513
    }
  }
  attr {
    key: "exponential_avg_factor"
    value {
      f: 1.0
    }
  }
  attr {
    key: "is_training"
    value {
      b: false
    }
  }
}
node {
  name: "xception_65/entry_flow/block1/unit_1/xception_module/separable_conv3_pointwise/weights/read"
  op: "Identity"
  input: "xception_65/entry_flow/block1/unit_1/xception_module/separable_conv3_pointwise/weights"
  attr {
    key: "T"
    value {
      type: DT_FLOAT
    }
  }
  attr {
    key: "_class"
    value {
      list {
        s: "loc:@xception_65/entry_flow/block1/unit_1/xception_module/separable_conv3_pointwise/weights"
      }
    }
  }
  attr {
    key: "_output_shapes"
    value {
      list {
        shape {
          dim {
            size: 1
          }
          dim {
            size: 1
          }
          dim {
            size: 128
          }
          dim {
            size: 128
          }
        }
      }
    }
  }
}
node {
  name: "xception_65/entry_flow/block1/unit_1/xception_module/separable_conv3_pointwise/Conv2D"
  op: "Conv2D"
  input: "xception_65/entry_flow/block1/unit_1/xception_module/separable_conv3_depthwise/BatchNorm/FusedBatchNorm"
  input: "xception_65/entry_flow/block1/unit_1/xception_module/separable_conv3_pointwise/weights/read"
  attr {
    key: "T"
    value {
      type: DT_FLOAT
    }
  }
  attr {
    key: "_output_shapes"
    value {
      list {
        shape {
          dim {
            size: 1
          }
          dim {
            size: 129
          }
          dim {
            size: 129
          }
          dim {
            size: 128
          }
        }
      }
    }
  }
  attr {
    key: "data_format"
    value {
      s: "NHWC"
    }
  }
  attr {
    key: "dilations"
    value {
      list {
        i: 1
        i: 1
        i: 1
        i: 1
      }
    }
  }
  attr {
    key: "explicit_paddings"
    value {
      list {
      }
    }
  }
  attr {
    key: "padding"
    value {
      s: "SAME"
    }
  }
  attr {
    key: "strides"
    value {
      list {
        i: 1
        i: 1
        i: 1
        i: 1
      }
    }
  }
  attr {
    key: "use_cudnn_on_gpu"
    value {
      b: true
    }
  }
}
node {
  name: "xception_65/entry_flow/block1/unit_1/xception_module/separable_conv3_pointwise/BatchNorm/gamma/read"
  op: "Identity"
  input: "xception_65/entry_flow/block1/unit_1/xception_module/separable_conv3_pointwise/BatchNorm/gamma"
  attr {
    key: "T"
    value {
      type: DT_FLOAT
    }
  }
  attr {
    key: "_class"
    value {
      list {
        s: "loc:@xception_65/entry_flow/block1/unit_1/xception_module/separable_conv3_pointwise/BatchNorm/gamma"
      }
    }
  }
  attr {
    key: "_output_shapes"
    value {
      list {
        shape {
          dim {
            size: 128
          }
        }
      }
    }
  }
}
node {
  name: "xception_65/entry_flow/block1/unit_1/xception_module/separable_conv3_pointwise/BatchNorm/beta/read"
  op: "Identity"
  input: "xception_65/entry_flow/block1/unit_1/xception_module/separable_conv3_pointwise/BatchNorm/beta"
  attr {
    key: "T"
    value {
      type: DT_FLOAT
    }
  }
  attr {
    key: "_class"
    value {
      list {
        s: "loc:@xception_65/entry_flow/block1/unit_1/xception_module/separable_conv3_pointwise/BatchNorm/beta"
      }
    }
  }
  attr {
    key: "_output_shapes"
    value {
      list {
        shape {
          dim {
            size: 128
          }
        }
      }
    }
  }
}
node {
  name: "xception_65/entry_flow/block1/unit_1/xception_module/separable_conv3_pointwise/BatchNorm/moving_mean/read"
  op: "Identity"
  input: "xception_65/entry_flow/block1/unit_1/xception_module/separable_conv3_pointwise/BatchNorm/moving_mean"
  attr {
    key: "T"
    value {
      type: DT_FLOAT
    }
  }
  attr {
    key: "_class"
    value {
      list {
        s: "loc:@xception_65/entry_flow/block1/unit_1/xception_module/separable_conv3_pointwise/BatchNorm/moving_mean"
      }
    }
  }
  attr {
    key: "_output_shapes"
    value {
      list {
        shape {
          dim {
            size: 128
          }
        }
      }
    }
  }
}
node {
  name: "xception_65/entry_flow/block1/unit_1/xception_module/separable_conv3_pointwise/BatchNorm/moving_variance/read"
  op: "Identity"
  input: "xception_65/entry_flow/block1/unit_1/xception_module/separable_conv3_pointwise/BatchNorm/moving_variance"
  attr {
    key: "T"
    value {
      type: DT_FLOAT
    }
  }
  attr {
    key: "_class"
    value {
      list {
        s: "loc:@xception_65/entry_flow/block1/unit_1/xception_module/separable_conv3_pointwise/BatchNorm/moving_variance"
      }
    }
  }
  attr {
    key: "_output_shapes"
    value {
      list {
        shape {
          dim {
            size: 128
          }
        }
      }
    }
  }
}
node {
  name: "xception_65/entry_flow/block1/unit_1/xception_module/separable_conv3_pointwise/BatchNorm/FusedBatchNorm"
  op: "FusedBatchNorm"
  input: "xception_65/entry_flow/block1/unit_1/xception_module/separable_conv3_pointwise/Conv2D"
  input: "xception_65/entry_flow/block1/unit_1/xception_module/separable_conv3_pointwise/BatchNorm/gamma/read"
  input: "xception_65/entry_flow/block1/unit_1/xception_module/separable_conv3_pointwise/BatchNorm/beta/read"
  input: "xception_65/entry_flow/block1/unit_1/xception_module/separable_conv3_pointwise/BatchNorm/moving_mean/read"
  input: "xception_65/entry_flow/block1/unit_1/xception_module/separable_conv3_pointwise/BatchNorm/moving_variance/read"
  attr {
    key: "T"
    value {
      type: DT_FLOAT
    }
  }
  attr {
    key: "_output_shapes"
    value {
      list {
        shape {
          dim {
            size: 1
          }
          dim {
            size: 129
          }
          dim {
            size: 129
          }
          dim {
            size: 128
          }
        }
        shape {
          dim {
            size: 128
          }
        }
        shape {
          dim {
            size: 128
          }
        }
        shape {
          dim {
            size: 128
          }
        }
        shape {
          dim {
            size: 128
          }
        }
      }
    }
  }
  attr {
    key: "data_format"
    value {
      s: "NHWC"
    }
  }
  attr {
    key: "epsilon"
    value {
      f: 0.0010000000474974513
    }
  }
  attr {
    key: "exponential_avg_factor"
    value {
      f: 1.0
    }
  }
  attr {
    key: "is_training"
    value {
      b: false
    }
  }
}
node {
  name: "xception_65/entry_flow/block1/unit_1/xception_module/shortcut/weights/read"
  op: "Identity"
  input: "xception_65/entry_flow/block1/unit_1/xception_module/shortcut/weights"
  attr {
    key: "T"
    value {
      type: DT_FLOAT
    }
  }
  attr {
    key: "_class"
    value {
      list {
        s: "loc:@xception_65/entry_flow/block1/unit_1/xception_module/shortcut/weights"
      }
    }
  }
  attr {
    key: "_output_shapes"
    value {
      list {
        shape {
          dim {
            size: 1
          }
          dim {
            size: 1
          }
          dim {
            size: 64
          }
          dim {
            size: 128
          }
        }
      }
    }
  }
}
node {
  name: "xception_65/entry_flow/block1/unit_1/xception_module/shortcut/Conv2D"
  op: "Conv2D"
  input: "xception_65/entry_flow/conv1_2/Relu"
  input: "xception_65/entry_flow/block1/unit_1/xception_module/shortcut/weights/read"
  attr {
    key: "T"
    value {
      type: DT_FLOAT
    }
  }
  attr {
    key: "_output_shapes"
    value {
      list {
        shape {
          dim {
            size: 1
          }
          dim {
            size: 129
          }
          dim {
            size: 129
          }
          dim {
            size: 128
          }
        }
      }
    }
  }
  attr {
    key: "data_format"
    value {
      s: "NHWC"
    }
  }
  attr {
    key: "dilations"
    value {
      list {
        i: 1
        i: 1
        i: 1
        i: 1
      }
    }
  }
  attr {
    key: "explicit_paddings"
    value {
      list {
      }
    }
  }
  attr {
    key: "padding"
    value {
      s: "SAME"
    }
  }
  attr {
    key: "strides"
    value {
      list {
        i: 1
        i: 2
        i: 2
        i: 1
      }
    }
  }
  attr {
    key: "use_cudnn_on_gpu"
    value {
      b: true
    }
  }
}
node {
  name: "xception_65/entry_flow/block1/unit_1/xception_module/shortcut/BatchNorm/gamma/read"
  op: "Identity"
  input: "xception_65/entry_flow/block1/unit_1/xception_module/shortcut/BatchNorm/gamma"
  attr {
    key: "T"
    value {
      type: DT_FLOAT
    }
  }
  attr {
    key: "_class"
    value {
      list {
        s: "loc:@xception_65/entry_flow/block1/unit_1/xception_module/shortcut/BatchNorm/gamma"
      }
    }
  }
  attr {
    key: "_output_shapes"
    value {
      list {
        shape {
          dim {
            size: 128
          }
        }
      }
    }
  }
}
node {
  name: "xception_65/entry_flow/block1/unit_1/xception_module/shortcut/BatchNorm/beta/read"
  op: "Identity"
  input: "xception_65/entry_flow/block1/unit_1/xception_module/shortcut/BatchNorm/beta"
  attr {
    key: "T"
    value {
      type: DT_FLOAT
    }
  }
  attr {
    key: "_class"
    value {
      list {
        s: "loc:@xception_65/entry_flow/block1/unit_1/xception_module/shortcut/BatchNorm/beta"
      }
    }
  }
  attr {
    key: "_output_shapes"
    value {
      list {
        shape {
          dim {
            size: 128
          }
        }
      }
    }
  }
}
node {
  name: "xception_65/entry_flow/block1/unit_1/xception_module/shortcut/BatchNorm/moving_mean/read"
  op: "Identity"
  input: "xception_65/entry_flow/block1/unit_1/xception_module/shortcut/BatchNorm/moving_mean"
  attr {
    key: "T"
    value {
      type: DT_FLOAT
    }
  }
  attr {
    key: "_class"
    value {
      list {
        s: "loc:@xception_65/entry_flow/block1/unit_1/xception_module/shortcut/BatchNorm/moving_mean"
      }
    }
  }
  attr {
    key: "_output_shapes"
    value {
      list {
        shape {
          dim {
            size: 128
          }
        }
      }
    }
  }
}
node {
  name: "xception_65/entry_flow/block1/unit_1/xception_module/shortcut/BatchNorm/moving_variance/read"
  op: "Identity"
  input: "xception_65/entry_flow/block1/unit_1/xception_module/shortcut/BatchNorm/moving_variance"
  attr {
    key: "T"
    value {
      type: DT_FLOAT
    }
  }
  attr {
    key: "_class"
    value {
      list {
        s: "loc:@xception_65/entry_flow/block1/unit_1/xception_module/shortcut/BatchNorm/moving_variance"
      }
    }
  }
  attr {
    key: "_output_shapes"
    value {
      list {
        shape {
          dim {
            size: 128
          }
        }
      }
    }
  }
}
node {
  name: "xception_65/entry_flow/block1/unit_1/xception_module/shortcut/BatchNorm/FusedBatchNorm"
  op: "FusedBatchNorm"
  input: "xception_65/entry_flow/block1/unit_1/xception_module/shortcut/Conv2D"
  input: "xception_65/entry_flow/block1/unit_1/xception_module/shortcut/BatchNorm/gamma/read"
  input: "xception_65/entry_flow/block1/unit_1/xception_module/shortcut/BatchNorm/beta/read"
  input: "xception_65/entry_flow/block1/unit_1/xception_module/shortcut/BatchNorm/moving_mean/read"
  input: "xception_65/entry_flow/block1/unit_1/xception_module/shortcut/BatchNorm/moving_variance/read"
  attr {
    key: "T"
    value {
      type: DT_FLOAT
    }
  }
  attr {
    key: "_output_shapes"
    value {
      list {
        shape {
          dim {
            size: 1
          }
          dim {
            size: 129
          }
          dim {
            size: 129
          }
          dim {
            size: 128
          }
        }
        shape {
          dim {
            size: 128
          }
        }
        shape {
          dim {
            size: 128
          }
        }
        shape {
          dim {
            size: 128
          }
        }
        shape {
          dim {
            size: 128
          }
        }
      }
    }
  }
  attr {
    key: "data_format"
    value {
      s: "NHWC"
    }
  }
  attr {
    key: "epsilon"
    value {
      f: 0.0010000000474974513
    }
  }
  attr {
    key: "exponential_avg_factor"
    value {
      f: 1.0
    }
  }
  attr {
    key: "is_training"
    value {
      b: false
    }
  }
}
node {
  name: "xception_65/entry_flow/block1/unit_1/xception_module/add"
  op: "Add"
  input: "xception_65/entry_flow/block1/unit_1/xception_module/separable_conv3_pointwise/BatchNorm/FusedBatchNorm"
  input: "xception_65/entry_flow/block1/unit_1/xception_module/shortcut/BatchNorm/FusedBatchNorm"
  attr {
    key: "T"
    value {
      type: DT_FLOAT
    }
  }
  attr {
    key: "_output_shapes"
    value {
      list {
        shape {
          dim {
            size: 1
          }
          dim {
            size: 129
          }
          dim {
            size: 129
          }
          dim {
            size: 128
          }
        }
      }
    }
  }
}
node {
  name: "xception_65/entry_flow/block2/unit_1/xception_module/Relu"
  op: "Relu"
  input: "xception_65/entry_flow/block1/unit_1/xception_module/add"
  attr {
    key: "T"
    value {
      type: DT_FLOAT
    }
  }
  attr {
    key: "_output_shapes"
    value {
      list {
        shape {
          dim {
            size: 1
          }
          dim {
            size: 129
          }
          dim {
            size: 129
          }
          dim {
            size: 128
          }
        }
      }
    }
  }
}
node {
  name: "xception_65/entry_flow/block2/unit_1/xception_module/separable_conv1_depthwise/depthwise_weights/read"
  op: "Identity"
  input: "xception_65/entry_flow/block2/unit_1/xception_module/separable_conv1_depthwise/depthwise_weights"
  attr {
    key: "T"
    value {
      type: DT_FLOAT
    }
  }
  attr {
    key: "_class"
    value {
      list {
        s: "loc:@xception_65/entry_flow/block2/unit_1/xception_module/separable_conv1_depthwise/depthwise_weights"
      }
    }
  }
  attr {
    key: "_output_shapes"
    value {
      list {
        shape {
          dim {
            size: 3
          }
          dim {
            size: 3
          }
          dim {
            size: 128
          }
          dim {
            size: 1
          }
        }
      }
    }
  }
}
node {
  name: "xception_65/entry_flow/block2/unit_1/xception_module/separable_conv1_depthwise/depthwise"
  op: "DepthwiseConv2dNative"
  input: "xception_65/entry_flow/block2/unit_1/xception_module/Relu"
  input: "xception_65/entry_flow/block2/unit_1/xception_module/separable_conv1_depthwise/depthwise_weights/read"
  attr {
    key: "T"
    value {
      type: DT_FLOAT
    }
  }
  attr {
    key: "_output_shapes"
    value {
      list {
        shape {
          dim {
            size: 1
          }
          dim {
            size: 129
          }
          dim {
            size: 129
          }
          dim {
            size: 128
          }
        }
      }
    }
  }
  attr {
    key: "data_format"
    value {
      s: "NHWC"
    }
  }
  attr {
    key: "dilations"
    value {
      list {
        i: 1
        i: 1
        i: 1
        i: 1
      }
    }
  }
  attr {
    key: "explicit_paddings"
    value {
      list {
      }
    }
  }
  attr {
    key: "padding"
    value {
      s: "SAME"
    }
  }
  attr {
    key: "strides"
    value {
      list {
        i: 1
        i: 1
        i: 1
        i: 1
      }
    }
  }
}
node {
  name: "xception_65/entry_flow/block2/unit_1/xception_module/separable_conv1_depthwise/BatchNorm/gamma/read"
  op: "Identity"
  input: "xception_65/entry_flow/block2/unit_1/xception_module/separable_conv1_depthwise/BatchNorm/gamma"
  attr {
    key: "T"
    value {
      type: DT_FLOAT
    }
  }
  attr {
    key: "_class"
    value {
      list {
        s: "loc:@xception_65/entry_flow/block2/unit_1/xception_module/separable_conv1_depthwise/BatchNorm/gamma"
      }
    }
  }
  attr {
    key: "_output_shapes"
    value {
      list {
        shape {
          dim {
            size: 128
          }
        }
      }
    }
  }
}
node {
  name: "xception_65/entry_flow/block2/unit_1/xception_module/separable_conv1_depthwise/BatchNorm/beta/read"
  op: "Identity"
  input: "xception_65/entry_flow/block2/unit_1/xception_module/separable_conv1_depthwise/BatchNorm/beta"
  attr {
    key: "T"
    value {
      type: DT_FLOAT
    }
  }
  attr {
    key: "_class"
    value {
      list {
        s: "loc:@xception_65/entry_flow/block2/unit_1/xception_module/separable_conv1_depthwise/BatchNorm/beta"
      }
    }
  }
  attr {
    key: "_output_shapes"
    value {
      list {
        shape {
          dim {
            size: 128
          }
        }
      }
    }
  }
}
node {
  name: "xception_65/entry_flow/block2/unit_1/xception_module/separable_conv1_depthwise/BatchNorm/moving_mean/read"
  op: "Identity"
  input: "xception_65/entry_flow/block2/unit_1/xception_module/separable_conv1_depthwise/BatchNorm/moving_mean"
  attr {
    key: "T"
    value {
      type: DT_FLOAT
    }
  }
  attr {
    key: "_class"
    value {
      list {
        s: "loc:@xception_65/entry_flow/block2/unit_1/xception_module/separable_conv1_depthwise/BatchNorm/moving_mean"
      }
    }
  }
  attr {
    key: "_output_shapes"
    value {
      list {
        shape {
          dim {
            size: 128
          }
        }
      }
    }
  }
}
node {
  name: "xception_65/entry_flow/block2/unit_1/xception_module/separable_conv1_depthwise/BatchNorm/moving_variance/read"
  op: "Identity"
  input: "xception_65/entry_flow/block2/unit_1/xception_module/separable_conv1_depthwise/BatchNorm/moving_variance"
  attr {
    key: "T"
    value {
      type: DT_FLOAT
    }
  }
  attr {
    key: "_class"
    value {
      list {
        s: "loc:@xception_65/entry_flow/block2/unit_1/xception_module/separable_conv1_depthwise/BatchNorm/moving_variance"
      }
    }
  }
  attr {
    key: "_output_shapes"
    value {
      list {
        shape {
          dim {
            size: 128
          }
        }
      }
    }
  }
}
node {
  name: "xception_65/entry_flow/block2/unit_1/xception_module/separable_conv1_depthwise/BatchNorm/FusedBatchNorm"
  op: "FusedBatchNorm"
  input: "xception_65/entry_flow/block2/unit_1/xception_module/separable_conv1_depthwise/depthwise"
  input: "xception_65/entry_flow/block2/unit_1/xception_module/separable_conv1_depthwise/BatchNorm/gamma/read"
  input: "xception_65/entry_flow/block2/unit_1/xception_module/separable_conv1_depthwise/BatchNorm/beta/read"
  input: "xception_65/entry_flow/block2/unit_1/xception_module/separable_conv1_depthwise/BatchNorm/moving_mean/read"
  input: "xception_65/entry_flow/block2/unit_1/xception_module/separable_conv1_depthwise/BatchNorm/moving_variance/read"
  attr {
    key: "T"
    value {
      type: DT_FLOAT
    }
  }
  attr {
    key: "_output_shapes"
    value {
      list {
        shape {
          dim {
            size: 1
          }
          dim {
            size: 129
          }
          dim {
            size: 129
          }
          dim {
            size: 128
          }
        }
        shape {
          dim {
            size: 128
          }
        }
        shape {
          dim {
            size: 128
          }
        }
        shape {
          dim {
            size: 128
          }
        }
        shape {
          dim {
            size: 128
          }
        }
      }
    }
  }
  attr {
    key: "data_format"
    value {
      s: "NHWC"
    }
  }
  attr {
    key: "epsilon"
    value {
      f: 0.0010000000474974513
    }
  }
  attr {
    key: "exponential_avg_factor"
    value {
      f: 1.0
    }
  }
  attr {
    key: "is_training"
    value {
      b: false
    }
  }
}
node {
  name: "xception_65/entry_flow/block2/unit_1/xception_module/separable_conv1_pointwise/weights/read"
  op: "Identity"
  input: "xception_65/entry_flow/block2/unit_1/xception_module/separable_conv1_pointwise/weights"
  attr {
    key: "T"
    value {
      type: DT_FLOAT
    }
  }
  attr {
    key: "_class"
    value {
      list {
        s: "loc:@xception_65/entry_flow/block2/unit_1/xception_module/separable_conv1_pointwise/weights"
      }
    }
  }
  attr {
    key: "_output_shapes"
    value {
      list {
        shape {
          dim {
            size: 1
          }
          dim {
            size: 1
          }
          dim {
            size: 128
          }
          dim {
            size: 256
          }
        }
      }
    }
  }
}
node {
  name: "xception_65/entry_flow/block2/unit_1/xception_module/separable_conv1_pointwise/Conv2D"
  op: "Conv2D"
  input: "xception_65/entry_flow/block2/unit_1/xception_module/separable_conv1_depthwise/BatchNorm/FusedBatchNorm"
  input: "xception_65/entry_flow/block2/unit_1/xception_module/separable_conv1_pointwise/weights/read"
  attr {
    key: "T"
    value {
      type: DT_FLOAT
    }
  }
  attr {
    key: "_output_shapes"
    value {
      list {
        shape {
          dim {
            size: 1
          }
          dim {
            size: 129
          }
          dim {
            size: 129
          }
          dim {
            size: 256
          }
        }
      }
    }
  }
  attr {
    key: "data_format"
    value {
      s: "NHWC"
    }
  }
  attr {
    key: "dilations"
    value {
      list {
        i: 1
        i: 1
        i: 1
        i: 1
      }
    }
  }
  attr {
    key: "explicit_paddings"
    value {
      list {
      }
    }
  }
  attr {
    key: "padding"
    value {
      s: "SAME"
    }
  }
  attr {
    key: "strides"
    value {
      list {
        i: 1
        i: 1
        i: 1
        i: 1
      }
    }
  }
  attr {
    key: "use_cudnn_on_gpu"
    value {
      b: true
    }
  }
}
node {
  name: "xception_65/entry_flow/block2/unit_1/xception_module/separable_conv1_pointwise/BatchNorm/gamma/read"
  op: "Identity"
  input: "xception_65/entry_flow/block2/unit_1/xception_module/separable_conv1_pointwise/BatchNorm/gamma"
  attr {
    key: "T"
    value {
      type: DT_FLOAT
    }
  }
  attr {
    key: "_class"
    value {
      list {
        s: "loc:@xception_65/entry_flow/block2/unit_1/xception_module/separable_conv1_pointwise/BatchNorm/gamma"
      }
    }
  }
  attr {
    key: "_output_shapes"
    value {
      list {
        shape {
          dim {
            size: 256
          }
        }
      }
    }
  }
}
node {
  name: "xception_65/entry_flow/block2/unit_1/xception_module/separable_conv1_pointwise/BatchNorm/beta/read"
  op: "Identity"
  input: "xception_65/entry_flow/block2/unit_1/xception_module/separable_conv1_pointwise/BatchNorm/beta"
  attr {
    key: "T"
    value {
      type: DT_FLOAT
    }
  }
  attr {
    key: "_class"
    value {
      list {
        s: "loc:@xception_65/entry_flow/block2/unit_1/xception_module/separable_conv1_pointwise/BatchNorm/beta"
      }
    }
  }
  attr {
    key: "_output_shapes"
    value {
      list {
        shape {
          dim {
            size: 256
          }
        }
      }
    }
  }
}
node {
  name: "xception_65/entry_flow/block2/unit_1/xception_module/separable_conv1_pointwise/BatchNorm/moving_mean/read"
  op: "Identity"
  input: "xception_65/entry_flow/block2/unit_1/xception_module/separable_conv1_pointwise/BatchNorm/moving_mean"
  attr {
    key: "T"
    value {
      type: DT_FLOAT
    }
  }
  attr {
    key: "_class"
    value {
      list {
        s: "loc:@xception_65/entry_flow/block2/unit_1/xception_module/separable_conv1_pointwise/BatchNorm/moving_mean"
      }
    }
  }
  attr {
    key: "_output_shapes"
    value {
      list {
        shape {
          dim {
            size: 256
          }
        }
      }
    }
  }
}
node {
  name: "xception_65/entry_flow/block2/unit_1/xception_module/separable_conv1_pointwise/BatchNorm/moving_variance/read"
  op: "Identity"
  input: "xception_65/entry_flow/block2/unit_1/xception_module/separable_conv1_pointwise/BatchNorm/moving_variance"
  attr {
    key: "T"
    value {
      type: DT_FLOAT
    }
  }
  attr {
    key: "_class"
    value {
      list {
        s: "loc:@xception_65/entry_flow/block2/unit_1/xception_module/separable_conv1_pointwise/BatchNorm/moving_variance"
      }
    }
  }
  attr {
    key: "_output_shapes"
    value {
      list {
        shape {
          dim {
            size: 256
          }
        }
      }
    }
  }
}
node {
  name: "xception_65/entry_flow/block2/unit_1/xception_module/separable_conv1_pointwise/BatchNorm/FusedBatchNorm"
  op: "FusedBatchNorm"
  input: "xception_65/entry_flow/block2/unit_1/xception_module/separable_conv1_pointwise/Conv2D"
  input: "xception_65/entry_flow/block2/unit_1/xception_module/separable_conv1_pointwise/BatchNorm/gamma/read"
  input: "xception_65/entry_flow/block2/unit_1/xception_module/separable_conv1_pointwise/BatchNorm/beta/read"
  input: "xception_65/entry_flow/block2/unit_1/xception_module/separable_conv1_pointwise/BatchNorm/moving_mean/read"
  input: "xception_65/entry_flow/block2/unit_1/xception_module/separable_conv1_pointwise/BatchNorm/moving_variance/read"
  attr {
    key: "T"
    value {
      type: DT_FLOAT
    }
  }
  attr {
    key: "_output_shapes"
    value {
      list {
        shape {
          dim {
            size: 1
          }
          dim {
            size: 129
          }
          dim {
            size: 129
          }
          dim {
            size: 256
          }
        }
        shape {
          dim {
            size: 256
          }
        }
        shape {
          dim {
            size: 256
          }
        }
        shape {
          dim {
            size: 256
          }
        }
        shape {
          dim {
            size: 256
          }
        }
      }
    }
  }
  attr {
    key: "data_format"
    value {
      s: "NHWC"
    }
  }
  attr {
    key: "epsilon"
    value {
      f: 0.0010000000474974513
    }
  }
  attr {
    key: "exponential_avg_factor"
    value {
      f: 1.0
    }
  }
  attr {
    key: "is_training"
    value {
      b: false
    }
  }
}
node {
  name: "xception_65/entry_flow/block2/unit_1/xception_module/Relu_1"
  op: "Relu"
  input: "xception_65/entry_flow/block2/unit_1/xception_module/separable_conv1_pointwise/BatchNorm/FusedBatchNorm"
  attr {
    key: "T"
    value {
      type: DT_FLOAT
    }
  }
  attr {
    key: "_output_shapes"
    value {
      list {
        shape {
          dim {
            size: 1
          }
          dim {
            size: 129
          }
          dim {
            size: 129
          }
          dim {
            size: 256
          }
        }
      }
    }
  }
}
node {
  name: "xception_65/entry_flow/block2/unit_1/xception_module/separable_conv2_depthwise/depthwise_weights/read"
  op: "Identity"
  input: "xception_65/entry_flow/block2/unit_1/xception_module/separable_conv2_depthwise/depthwise_weights"
  attr {
    key: "T"
    value {
      type: DT_FLOAT
    }
  }
  attr {
    key: "_class"
    value {
      list {
        s: "loc:@xception_65/entry_flow/block2/unit_1/xception_module/separable_conv2_depthwise/depthwise_weights"
      }
    }
  }
  attr {
    key: "_output_shapes"
    value {
      list {
        shape {
          dim {
            size: 3
          }
          dim {
            size: 3
          }
          dim {
            size: 256
          }
          dim {
            size: 1
          }
        }
      }
    }
  }
}
node {
  name: "xception_65/entry_flow/block2/unit_1/xception_module/separable_conv2_depthwise/depthwise"
  op: "DepthwiseConv2dNative"
  input: "xception_65/entry_flow/block2/unit_1/xception_module/Relu_1"
  input: "xception_65/entry_flow/block2/unit_1/xception_module/separable_conv2_depthwise/depthwise_weights/read"
  attr {
    key: "T"
    value {
      type: DT_FLOAT
    }
  }
  attr {
    key: "_output_shapes"
    value {
      list {
        shape {
          dim {
            size: 1
          }
          dim {
            size: 129
          }
          dim {
            size: 129
          }
          dim {
            size: 256
          }
        }
      }
    }
  }
  attr {
    key: "data_format"
    value {
      s: "NHWC"
    }
  }
  attr {
    key: "dilations"
    value {
      list {
        i: 1
        i: 1
        i: 1
        i: 1
      }
    }
  }
  attr {
    key: "explicit_paddings"
    value {
      list {
      }
    }
  }
  attr {
    key: "padding"
    value {
      s: "SAME"
    }
  }
  attr {
    key: "strides"
    value {
      list {
        i: 1
        i: 1
        i: 1
        i: 1
      }
    }
  }
}
node {
  name: "xception_65/entry_flow/block2/unit_1/xception_module/separable_conv2_depthwise/BatchNorm/gamma/read"
  op: "Identity"
  input: "xception_65/entry_flow/block2/unit_1/xception_module/separable_conv2_depthwise/BatchNorm/gamma"
  attr {
    key: "T"
    value {
      type: DT_FLOAT
    }
  }
  attr {
    key: "_class"
    value {
      list {
        s: "loc:@xception_65/entry_flow/block2/unit_1/xception_module/separable_conv2_depthwise/BatchNorm/gamma"
      }
    }
  }
  attr {
    key: "_output_shapes"
    value {
      list {
        shape {
          dim {
            size: 256
          }
        }
      }
    }
  }
}
node {
  name: "xception_65/entry_flow/block2/unit_1/xception_module/separable_conv2_depthwise/BatchNorm/beta/read"
  op: "Identity"
  input: "xception_65/entry_flow/block2/unit_1/xception_module/separable_conv2_depthwise/BatchNorm/beta"
  attr {
    key: "T"
    value {
      type: DT_FLOAT
    }
  }
  attr {
    key: "_class"
    value {
      list {
        s: "loc:@xception_65/entry_flow/block2/unit_1/xception_module/separable_conv2_depthwise/BatchNorm/beta"
      }
    }
  }
  attr {
    key: "_output_shapes"
    value {
      list {
        shape {
          dim {
            size: 256
          }
        }
      }
    }
  }
}
node {
  name: "xception_65/entry_flow/block2/unit_1/xception_module/separable_conv2_depthwise/BatchNorm/moving_mean/read"
  op: "Identity"
  input: "xception_65/entry_flow/block2/unit_1/xception_module/separable_conv2_depthwise/BatchNorm/moving_mean"
  attr {
    key: "T"
    value {
      type: DT_FLOAT
    }
  }
  attr {
    key: "_class"
    value {
      list {
        s: "loc:@xception_65/entry_flow/block2/unit_1/xception_module/separable_conv2_depthwise/BatchNorm/moving_mean"
      }
    }
  }
  attr {
    key: "_output_shapes"
    value {
      list {
        shape {
          dim {
            size: 256
          }
        }
      }
    }
  }
}
node {
  name: "xception_65/entry_flow/block2/unit_1/xception_module/separable_conv2_depthwise/BatchNorm/moving_variance/read"
  op: "Identity"
  input: "xception_65/entry_flow/block2/unit_1/xception_module/separable_conv2_depthwise/BatchNorm/moving_variance"
  attr {
    key: "T"
    value {
      type: DT_FLOAT
    }
  }
  attr {
    key: "_class"
    value {
      list {
        s: "loc:@xception_65/entry_flow/block2/unit_1/xception_module/separable_conv2_depthwise/BatchNorm/moving_variance"
      }
    }
  }
  attr {
    key: "_output_shapes"
    value {
      list {
        shape {
          dim {
            size: 256
          }
        }
      }
    }
  }
}
node {
  name: "xception_65/entry_flow/block2/unit_1/xception_module/separable_conv2_depthwise/BatchNorm/FusedBatchNorm"
  op: "FusedBatchNorm"
  input: "xception_65/entry_flow/block2/unit_1/xception_module/separable_conv2_depthwise/depthwise"
  input: "xception_65/entry_flow/block2/unit_1/xception_module/separable_conv2_depthwise/BatchNorm/gamma/read"
  input: "xception_65/entry_flow/block2/unit_1/xception_module/separable_conv2_depthwise/BatchNorm/beta/read"
  input: "xception_65/entry_flow/block2/unit_1/xception_module/separable_conv2_depthwise/BatchNorm/moving_mean/read"
  input: "xception_65/entry_flow/block2/unit_1/xception_module/separable_conv2_depthwise/BatchNorm/moving_variance/read"
  attr {
    key: "T"
    value {
      type: DT_FLOAT
    }
  }
  attr {
    key: "_output_shapes"
    value {
      list {
        shape {
          dim {
            size: 1
          }
          dim {
            size: 129
          }
          dim {
            size: 129
          }
          dim {
            size: 256
          }
        }
        shape {
          dim {
            size: 256
          }
        }
        shape {
          dim {
            size: 256
          }
        }
        shape {
          dim {
            size: 256
          }
        }
        shape {
          dim {
            size: 256
          }
        }
      }
    }
  }
  attr {
    key: "data_format"
    value {
      s: "NHWC"
    }
  }
  attr {
    key: "epsilon"
    value {
      f: 0.0010000000474974513
    }
  }
  attr {
    key: "exponential_avg_factor"
    value {
      f: 1.0
    }
  }
  attr {
    key: "is_training"
    value {
      b: false
    }
  }
}
node {
  name: "xception_65/entry_flow/block2/unit_1/xception_module/separable_conv2_pointwise/weights/read"
  op: "Identity"
  input: "xception_65/entry_flow/block2/unit_1/xception_module/separable_conv2_pointwise/weights"
  attr {
    key: "T"
    value {
      type: DT_FLOAT
    }
  }
  attr {
    key: "_class"
    value {
      list {
        s: "loc:@xception_65/entry_flow/block2/unit_1/xception_module/separable_conv2_pointwise/weights"
      }
    }
  }
  attr {
    key: "_output_shapes"
    value {
      list {
        shape {
          dim {
            size: 1
          }
          dim {
            size: 1
          }
          dim {
            size: 256
          }
          dim {
            size: 256
          }
        }
      }
    }
  }
}
node {
  name: "xception_65/entry_flow/block2/unit_1/xception_module/separable_conv2_pointwise/Conv2D"
  op: "Conv2D"
  input: "xception_65/entry_flow/block2/unit_1/xception_module/separable_conv2_depthwise/BatchNorm/FusedBatchNorm"
  input: "xception_65/entry_flow/block2/unit_1/xception_module/separable_conv2_pointwise/weights/read"
  attr {
    key: "T"
    value {
      type: DT_FLOAT
    }
  }
  attr {
    key: "_output_shapes"
    value {
      list {
        shape {
          dim {
            size: 1
          }
          dim {
            size: 129
          }
          dim {
            size: 129
          }
          dim {
            size: 256
          }
        }
      }
    }
  }
  attr {
    key: "data_format"
    value {
      s: "NHWC"
    }
  }
  attr {
    key: "dilations"
    value {
      list {
        i: 1
        i: 1
        i: 1
        i: 1
      }
    }
  }
  attr {
    key: "explicit_paddings"
    value {
      list {
      }
    }
  }
  attr {
    key: "padding"
    value {
      s: "SAME"
    }
  }
  attr {
    key: "strides"
    value {
      list {
        i: 1
        i: 1
        i: 1
        i: 1
      }
    }
  }
  attr {
    key: "use_cudnn_on_gpu"
    value {
      b: true
    }
  }
}
node {
  name: "xception_65/entry_flow/block2/unit_1/xception_module/separable_conv2_pointwise/BatchNorm/gamma/read"
  op: "Identity"
  input: "xception_65/entry_flow/block2/unit_1/xception_module/separable_conv2_pointwise/BatchNorm/gamma"
  attr {
    key: "T"
    value {
      type: DT_FLOAT
    }
  }
  attr {
    key: "_class"
    value {
      list {
        s: "loc:@xception_65/entry_flow/block2/unit_1/xception_module/separable_conv2_pointwise/BatchNorm/gamma"
      }
    }
  }
  attr {
    key: "_output_shapes"
    value {
      list {
        shape {
          dim {
            size: 256
          }
        }
      }
    }
  }
}
node {
  name: "xception_65/entry_flow/block2/unit_1/xception_module/separable_conv2_pointwise/BatchNorm/beta/read"
  op: "Identity"
  input: "xception_65/entry_flow/block2/unit_1/xception_module/separable_conv2_pointwise/BatchNorm/beta"
  attr {
    key: "T"
    value {
      type: DT_FLOAT
    }
  }
  attr {
    key: "_class"
    value {
      list {
        s: "loc:@xception_65/entry_flow/block2/unit_1/xception_module/separable_conv2_pointwise/BatchNorm/beta"
      }
    }
  }
  attr {
    key: "_output_shapes"
    value {
      list {
        shape {
          dim {
            size: 256
          }
        }
      }
    }
  }
}
node {
  name: "xception_65/entry_flow/block2/unit_1/xception_module/separable_conv2_pointwise/BatchNorm/moving_mean/read"
  op: "Identity"
  input: "xception_65/entry_flow/block2/unit_1/xception_module/separable_conv2_pointwise/BatchNorm/moving_mean"
  attr {
    key: "T"
    value {
      type: DT_FLOAT
    }
  }
  attr {
    key: "_class"
    value {
      list {
        s: "loc:@xception_65/entry_flow/block2/unit_1/xception_module/separable_conv2_pointwise/BatchNorm/moving_mean"
      }
    }
  }
  attr {
    key: "_output_shapes"
    value {
      list {
        shape {
          dim {
            size: 256
          }
        }
      }
    }
  }
}
node {
  name: "xception_65/entry_flow/block2/unit_1/xception_module/separable_conv2_pointwise/BatchNorm/moving_variance/read"
  op: "Identity"
  input: "xception_65/entry_flow/block2/unit_1/xception_module/separable_conv2_pointwise/BatchNorm/moving_variance"
  attr {
    key: "T"
    value {
      type: DT_FLOAT
    }
  }
  attr {
    key: "_class"
    value {
      list {
        s: "loc:@xception_65/entry_flow/block2/unit_1/xception_module/separable_conv2_pointwise/BatchNorm/moving_variance"
      }
    }
  }
  attr {
    key: "_output_shapes"
    value {
      list {
        shape {
          dim {
            size: 256
          }
        }
      }
    }
  }
}
node {
  name: "xception_65/entry_flow/block2/unit_1/xception_module/separable_conv2_pointwise/BatchNorm/FusedBatchNorm"
  op: "FusedBatchNorm"
  input: "xception_65/entry_flow/block2/unit_1/xception_module/separable_conv2_pointwise/Conv2D"
  input: "xception_65/entry_flow/block2/unit_1/xception_module/separable_conv2_pointwise/BatchNorm/gamma/read"
  input: "xception_65/entry_flow/block2/unit_1/xception_module/separable_conv2_pointwise/BatchNorm/beta/read"
  input: "xception_65/entry_flow/block2/unit_1/xception_module/separable_conv2_pointwise/BatchNorm/moving_mean/read"
  input: "xception_65/entry_flow/block2/unit_1/xception_module/separable_conv2_pointwise/BatchNorm/moving_variance/read"
  attr {
    key: "T"
    value {
      type: DT_FLOAT
    }
  }
  attr {
    key: "_output_shapes"
    value {
      list {
        shape {
          dim {
            size: 1
          }
          dim {
            size: 129
          }
          dim {
            size: 129
          }
          dim {
            size: 256
          }
        }
        shape {
          dim {
            size: 256
          }
        }
        shape {
          dim {
            size: 256
          }
        }
        shape {
          dim {
            size: 256
          }
        }
        shape {
          dim {
            size: 256
          }
        }
      }
    }
  }
  attr {
    key: "data_format"
    value {
      s: "NHWC"
    }
  }
  attr {
    key: "epsilon"
    value {
      f: 0.0010000000474974513
    }
  }
  attr {
    key: "exponential_avg_factor"
    value {
      f: 1.0
    }
  }
  attr {
    key: "is_training"
    value {
      b: false
    }
  }
}
node {
  name: "xception_65/entry_flow/block2/unit_1/xception_module/Relu_2"
  op: "Relu"
  input: "xception_65/entry_flow/block2/unit_1/xception_module/separable_conv2_pointwise/BatchNorm/FusedBatchNorm"
  attr {
    key: "T"
    value {
      type: DT_FLOAT
    }
  }
  attr {
    key: "_output_shapes"
    value {
      list {
        shape {
          dim {
            size: 1
          }
          dim {
            size: 129
          }
          dim {
            size: 129
          }
          dim {
            size: 256
          }
        }
      }
    }
  }
}
node {
  name: "xception_65/entry_flow/block2/unit_1/xception_module/Pad"
  op: "Pad"
  input: "xception_65/entry_flow/block2/unit_1/xception_module/Relu_2"
  input: "xception_65/entry_flow/block2/unit_1/xception_module/Pad/paddings"
  attr {
    key: "T"
    value {
      type: DT_FLOAT
    }
  }
  attr {
    key: "Tpaddings"
    value {
      type: DT_INT32
    }
  }
  attr {
    key: "_output_shapes"
    value {
      list {
        shape {
          dim {
            size: 1
          }
          dim {
            size: 131
          }
          dim {
            size: 131
          }
          dim {
            size: 256
          }
        }
      }
    }
  }
}
node {
  name: "xception_65/entry_flow/block2/unit_1/xception_module/separable_conv3_depthwise/depthwise_weights/read"
  op: "Identity"
  input: "xception_65/entry_flow/block2/unit_1/xception_module/separable_conv3_depthwise/depthwise_weights"
  attr {
    key: "T"
    value {
      type: DT_FLOAT
    }
  }
  attr {
    key: "_class"
    value {
      list {
        s: "loc:@xception_65/entry_flow/block2/unit_1/xception_module/separable_conv3_depthwise/depthwise_weights"
      }
    }
  }
  attr {
    key: "_output_shapes"
    value {
      list {
        shape {
          dim {
            size: 3
          }
          dim {
            size: 3
          }
          dim {
            size: 256
          }
          dim {
            size: 1
          }
        }
      }
    }
  }
}
node {
  name: "xception_65/entry_flow/block2/unit_1/xception_module/separable_conv3_depthwise/depthwise"
  op: "DepthwiseConv2dNative"
  input: "xception_65/entry_flow/block2/unit_1/xception_module/Pad"
  input: "xception_65/entry_flow/block2/unit_1/xception_module/separable_conv3_depthwise/depthwise_weights/read"
  attr {
    key: "T"
    value {
      type: DT_FLOAT
    }
  }
  attr {
    key: "_output_shapes"
    value {
      list {
        shape {
          dim {
            size: 1
          }
          dim {
            size: 65
          }
          dim {
            size: 65
          }
          dim {
            size: 256
          }
        }
      }
    }
  }
  attr {
    key: "data_format"
    value {
      s: "NHWC"
    }
  }
  attr {
    key: "dilations"
    value {
      list {
        i: 1
        i: 1
        i: 1
        i: 1
      }
    }
  }
  attr {
    key: "explicit_paddings"
    value {
      list {
      }
    }
  }
  attr {
    key: "padding"
    value {
      s: "VALID"
    }
  }
  attr {
    key: "strides"
    value {
      list {
        i: 1
        i: 2
        i: 2
        i: 1
      }
    }
  }
}
node {
  name: "xception_65/entry_flow/block2/unit_1/xception_module/separable_conv3_depthwise/BatchNorm/gamma/read"
  op: "Identity"
  input: "xception_65/entry_flow/block2/unit_1/xception_module/separable_conv3_depthwise/BatchNorm/gamma"
  attr {
    key: "T"
    value {
      type: DT_FLOAT
    }
  }
  attr {
    key: "_class"
    value {
      list {
        s: "loc:@xception_65/entry_flow/block2/unit_1/xception_module/separable_conv3_depthwise/BatchNorm/gamma"
      }
    }
  }
  attr {
    key: "_output_shapes"
    value {
      list {
        shape {
          dim {
            size: 256
          }
        }
      }
    }
  }
}
node {
  name: "xception_65/entry_flow/block2/unit_1/xception_module/separable_conv3_depthwise/BatchNorm/beta/read"
  op: "Identity"
  input: "xception_65/entry_flow/block2/unit_1/xception_module/separable_conv3_depthwise/BatchNorm/beta"
  attr {
    key: "T"
    value {
      type: DT_FLOAT
    }
  }
  attr {
    key: "_class"
    value {
      list {
        s: "loc:@xception_65/entry_flow/block2/unit_1/xception_module/separable_conv3_depthwise/BatchNorm/beta"
      }
    }
  }
  attr {
    key: "_output_shapes"
    value {
      list {
        shape {
          dim {
            size: 256
          }
        }
      }
    }
  }
}
node {
  name: "xception_65/entry_flow/block2/unit_1/xception_module/separable_conv3_depthwise/BatchNorm/moving_mean/read"
  op: "Identity"
  input: "xception_65/entry_flow/block2/unit_1/xception_module/separable_conv3_depthwise/BatchNorm/moving_mean"
  attr {
    key: "T"
    value {
      type: DT_FLOAT
    }
  }
  attr {
    key: "_class"
    value {
      list {
        s: "loc:@xception_65/entry_flow/block2/unit_1/xception_module/separable_conv3_depthwise/BatchNorm/moving_mean"
      }
    }
  }
  attr {
    key: "_output_shapes"
    value {
      list {
        shape {
          dim {
            size: 256
          }
        }
      }
    }
  }
}
node {
  name: "xception_65/entry_flow/block2/unit_1/xception_module/separable_conv3_depthwise/BatchNorm/moving_variance/read"
  op: "Identity"
  input: "xception_65/entry_flow/block2/unit_1/xception_module/separable_conv3_depthwise/BatchNorm/moving_variance"
  attr {
    key: "T"
    value {
      type: DT_FLOAT
    }
  }
  attr {
    key: "_class"
    value {
      list {
        s: "loc:@xception_65/entry_flow/block2/unit_1/xception_module/separable_conv3_depthwise/BatchNorm/moving_variance"
      }
    }
  }
  attr {
    key: "_output_shapes"
    value {
      list {
        shape {
          dim {
            size: 256
          }
        }
      }
    }
  }
}
node {
  name: "xception_65/entry_flow/block2/unit_1/xception_module/separable_conv3_depthwise/BatchNorm/FusedBatchNorm"
  op: "FusedBatchNorm"
  input: "xception_65/entry_flow/block2/unit_1/xception_module/separable_conv3_depthwise/depthwise"
  input: "xception_65/entry_flow/block2/unit_1/xception_module/separable_conv3_depthwise/BatchNorm/gamma/read"
  input: "xception_65/entry_flow/block2/unit_1/xception_module/separable_conv3_depthwise/BatchNorm/beta/read"
  input: "xception_65/entry_flow/block2/unit_1/xception_module/separable_conv3_depthwise/BatchNorm/moving_mean/read"
  input: "xception_65/entry_flow/block2/unit_1/xception_module/separable_conv3_depthwise/BatchNorm/moving_variance/read"
  attr {
    key: "T"
    value {
      type: DT_FLOAT
    }
  }
  attr {
    key: "_output_shapes"
    value {
      list {
        shape {
          dim {
            size: 1
          }
          dim {
            size: 65
          }
          dim {
            size: 65
          }
          dim {
            size: 256
          }
        }
        shape {
          dim {
            size: 256
          }
        }
        shape {
          dim {
            size: 256
          }
        }
        shape {
          dim {
            size: 256
          }
        }
        shape {
          dim {
            size: 256
          }
        }
      }
    }
  }
  attr {
    key: "data_format"
    value {
      s: "NHWC"
    }
  }
  attr {
    key: "epsilon"
    value {
      f: 0.0010000000474974513
    }
  }
  attr {
    key: "exponential_avg_factor"
    value {
      f: 1.0
    }
  }
  attr {
    key: "is_training"
    value {
      b: false
    }
  }
}
node {
  name: "xception_65/entry_flow/block2/unit_1/xception_module/separable_conv3_pointwise/weights/read"
  op: "Identity"
  input: "xception_65/entry_flow/block2/unit_1/xception_module/separable_conv3_pointwise/weights"
  attr {
    key: "T"
    value {
      type: DT_FLOAT
    }
  }
  attr {
    key: "_class"
    value {
      list {
        s: "loc:@xception_65/entry_flow/block2/unit_1/xception_module/separable_conv3_pointwise/weights"
      }
    }
  }
  attr {
    key: "_output_shapes"
    value {
      list {
        shape {
          dim {
            size: 1
          }
          dim {
            size: 1
          }
          dim {
            size: 256
          }
          dim {
            size: 256
          }
        }
      }
    }
  }
}
node {
  name: "xception_65/entry_flow/block2/unit_1/xception_module/separable_conv3_pointwise/Conv2D"
  op: "Conv2D"
  input: "xception_65/entry_flow/block2/unit_1/xception_module/separable_conv3_depthwise/BatchNorm/FusedBatchNorm"
  input: "xception_65/entry_flow/block2/unit_1/xception_module/separable_conv3_pointwise/weights/read"
  attr {
    key: "T"
    value {
      type: DT_FLOAT
    }
  }
  attr {
    key: "_output_shapes"
    value {
      list {
        shape {
          dim {
            size: 1
          }
          dim {
            size: 65
          }
          dim {
            size: 65
          }
          dim {
            size: 256
          }
        }
      }
    }
  }
  attr {
    key: "data_format"
    value {
      s: "NHWC"
    }
  }
  attr {
    key: "dilations"
    value {
      list {
        i: 1
        i: 1
        i: 1
        i: 1
      }
    }
  }
  attr {
    key: "explicit_paddings"
    value {
      list {
      }
    }
  }
  attr {
    key: "padding"
    value {
      s: "SAME"
    }
  }
  attr {
    key: "strides"
    value {
      list {
        i: 1
        i: 1
        i: 1
        i: 1
      }
    }
  }
  attr {
    key: "use_cudnn_on_gpu"
    value {
      b: true
    }
  }
}
node {
  name: "xception_65/entry_flow/block2/unit_1/xception_module/separable_conv3_pointwise/BatchNorm/gamma/read"
  op: "Identity"
  input: "xception_65/entry_flow/block2/unit_1/xception_module/separable_conv3_pointwise/BatchNorm/gamma"
  attr {
    key: "T"
    value {
      type: DT_FLOAT
    }
  }
  attr {
    key: "_class"
    value {
      list {
        s: "loc:@xception_65/entry_flow/block2/unit_1/xception_module/separable_conv3_pointwise/BatchNorm/gamma"
      }
    }
  }
  attr {
    key: "_output_shapes"
    value {
      list {
        shape {
          dim {
            size: 256
          }
        }
      }
    }
  }
}
node {
  name: "xception_65/entry_flow/block2/unit_1/xception_module/separable_conv3_pointwise/BatchNorm/beta/read"
  op: "Identity"
  input: "xception_65/entry_flow/block2/unit_1/xception_module/separable_conv3_pointwise/BatchNorm/beta"
  attr {
    key: "T"
    value {
      type: DT_FLOAT
    }
  }
  attr {
    key: "_class"
    value {
      list {
        s: "loc:@xception_65/entry_flow/block2/unit_1/xception_module/separable_conv3_pointwise/BatchNorm/beta"
      }
    }
  }
  attr {
    key: "_output_shapes"
    value {
      list {
        shape {
          dim {
            size: 256
          }
        }
      }
    }
  }
}
node {
  name: "xception_65/entry_flow/block2/unit_1/xception_module/separable_conv3_pointwise/BatchNorm/moving_mean/read"
  op: "Identity"
  input: "xception_65/entry_flow/block2/unit_1/xception_module/separable_conv3_pointwise/BatchNorm/moving_mean"
  attr {
    key: "T"
    value {
      type: DT_FLOAT
    }
  }
  attr {
    key: "_class"
    value {
      list {
        s: "loc:@xception_65/entry_flow/block2/unit_1/xception_module/separable_conv3_pointwise/BatchNorm/moving_mean"
      }
    }
  }
  attr {
    key: "_output_shapes"
    value {
      list {
        shape {
          dim {
            size: 256
          }
        }
      }
    }
  }
}
node {
  name: "xception_65/entry_flow/block2/unit_1/xception_module/separable_conv3_pointwise/BatchNorm/moving_variance/read"
  op: "Identity"
  input: "xception_65/entry_flow/block2/unit_1/xception_module/separable_conv3_pointwise/BatchNorm/moving_variance"
  attr {
    key: "T"
    value {
      type: DT_FLOAT
    }
  }
  attr {
    key: "_class"
    value {
      list {
        s: "loc:@xception_65/entry_flow/block2/unit_1/xception_module/separable_conv3_pointwise/BatchNorm/moving_variance"
      }
    }
  }
  attr {
    key: "_output_shapes"
    value {
      list {
        shape {
          dim {
            size: 256
          }
        }
      }
    }
  }
}
node {
  name: "xception_65/entry_flow/block2/unit_1/xception_module/separable_conv3_pointwise/BatchNorm/FusedBatchNorm"
  op: "FusedBatchNorm"
  input: "xception_65/entry_flow/block2/unit_1/xception_module/separable_conv3_pointwise/Conv2D"
  input: "xception_65/entry_flow/block2/unit_1/xception_module/separable_conv3_pointwise/BatchNorm/gamma/read"
  input: "xception_65/entry_flow/block2/unit_1/xception_module/separable_conv3_pointwise/BatchNorm/beta/read"
  input: "xception_65/entry_flow/block2/unit_1/xception_module/separable_conv3_pointwise/BatchNorm/moving_mean/read"
  input: "xception_65/entry_flow/block2/unit_1/xception_module/separable_conv3_pointwise/BatchNorm/moving_variance/read"
  attr {
    key: "T"
    value {
      type: DT_FLOAT
    }
  }
  attr {
    key: "_output_shapes"
    value {
      list {
        shape {
          dim {
            size: 1
          }
          dim {
            size: 65
          }
          dim {
            size: 65
          }
          dim {
            size: 256
          }
        }
        shape {
          dim {
            size: 256
          }
        }
        shape {
          dim {
            size: 256
          }
        }
        shape {
          dim {
            size: 256
          }
        }
        shape {
          dim {
            size: 256
          }
        }
      }
    }
  }
  attr {
    key: "data_format"
    value {
      s: "NHWC"
    }
  }
  attr {
    key: "epsilon"
    value {
      f: 0.0010000000474974513
    }
  }
  attr {
    key: "exponential_avg_factor"
    value {
      f: 1.0
    }
  }
  attr {
    key: "is_training"
    value {
      b: false
    }
  }
}
node {
  name: "xception_65/entry_flow/block2/unit_1/xception_module/shortcut/weights/read"
  op: "Identity"
  input: "xception_65/entry_flow/block2/unit_1/xception_module/shortcut/weights"
  attr {
    key: "T"
    value {
      type: DT_FLOAT
    }
  }
  attr {
    key: "_class"
    value {
      list {
        s: "loc:@xception_65/entry_flow/block2/unit_1/xception_module/shortcut/weights"
      }
    }
  }
  attr {
    key: "_output_shapes"
    value {
      list {
        shape {
          dim {
            size: 1
          }
          dim {
            size: 1
          }
          dim {
            size: 128
          }
          dim {
            size: 256
          }
        }
      }
    }
  }
}
node {
  name: "xception_65/entry_flow/block2/unit_1/xception_module/shortcut/Conv2D"
  op: "Conv2D"
  input: "xception_65/entry_flow/block1/unit_1/xception_module/add"
  input: "xception_65/entry_flow/block2/unit_1/xception_module/shortcut/weights/read"
  attr {
    key: "T"
    value {
      type: DT_FLOAT
    }
  }
  attr {
    key: "_output_shapes"
    value {
      list {
        shape {
          dim {
            size: 1
          }
          dim {
            size: 65
          }
          dim {
            size: 65
          }
          dim {
            size: 256
          }
        }
      }
    }
  }
  attr {
    key: "data_format"
    value {
      s: "NHWC"
    }
  }
  attr {
    key: "dilations"
    value {
      list {
        i: 1
        i: 1
        i: 1
        i: 1
      }
    }
  }
  attr {
    key: "explicit_paddings"
    value {
      list {
      }
    }
  }
  attr {
    key: "padding"
    value {
      s: "SAME"
    }
  }
  attr {
    key: "strides"
    value {
      list {
        i: 1
        i: 2
        i: 2
        i: 1
      }
    }
  }
  attr {
    key: "use_cudnn_on_gpu"
    value {
      b: true
    }
  }
}
node {
  name: "xception_65/entry_flow/block2/unit_1/xception_module/shortcut/BatchNorm/gamma/read"
  op: "Identity"
  input: "xception_65/entry_flow/block2/unit_1/xception_module/shortcut/BatchNorm/gamma"
  attr {
    key: "T"
    value {
      type: DT_FLOAT
    }
  }
  attr {
    key: "_class"
    value {
      list {
        s: "loc:@xception_65/entry_flow/block2/unit_1/xception_module/shortcut/BatchNorm/gamma"
      }
    }
  }
  attr {
    key: "_output_shapes"
    value {
      list {
        shape {
          dim {
            size: 256
          }
        }
      }
    }
  }
}
node {
  name: "xception_65/entry_flow/block2/unit_1/xception_module/shortcut/BatchNorm/beta/read"
  op: "Identity"
  input: "xception_65/entry_flow/block2/unit_1/xception_module/shortcut/BatchNorm/beta"
  attr {
    key: "T"
    value {
      type: DT_FLOAT
    }
  }
  attr {
    key: "_class"
    value {
      list {
        s: "loc:@xception_65/entry_flow/block2/unit_1/xception_module/shortcut/BatchNorm/beta"
      }
    }
  }
  attr {
    key: "_output_shapes"
    value {
      list {
        shape {
          dim {
            size: 256
          }
        }
      }
    }
  }
}
node {
  name: "xception_65/entry_flow/block2/unit_1/xception_module/shortcut/BatchNorm/moving_mean/read"
  op: "Identity"
  input: "xception_65/entry_flow/block2/unit_1/xception_module/shortcut/BatchNorm/moving_mean"
  attr {
    key: "T"
    value {
      type: DT_FLOAT
    }
  }
  attr {
    key: "_class"
    value {
      list {
        s: "loc:@xception_65/entry_flow/block2/unit_1/xception_module/shortcut/BatchNorm/moving_mean"
      }
    }
  }
  attr {
    key: "_output_shapes"
    value {
      list {
        shape {
          dim {
            size: 256
          }
        }
      }
    }
  }
}
node {
  name: "xception_65/entry_flow/block2/unit_1/xception_module/shortcut/BatchNorm/moving_variance/read"
  op: "Identity"
  input: "xception_65/entry_flow/block2/unit_1/xception_module/shortcut/BatchNorm/moving_variance"
  attr {
    key: "T"
    value {
      type: DT_FLOAT
    }
  }
  attr {
    key: "_class"
    value {
      list {
        s: "loc:@xception_65/entry_flow/block2/unit_1/xception_module/shortcut/BatchNorm/moving_variance"
      }
    }
  }
  attr {
    key: "_output_shapes"
    value {
      list {
        shape {
          dim {
            size: 256
          }
        }
      }
    }
  }
}
node {
  name: "xception_65/entry_flow/block2/unit_1/xception_module/shortcut/BatchNorm/FusedBatchNorm"
  op: "FusedBatchNorm"
  input: "xception_65/entry_flow/block2/unit_1/xception_module/shortcut/Conv2D"
  input: "xception_65/entry_flow/block2/unit_1/xception_module/shortcut/BatchNorm/gamma/read"
  input: "xception_65/entry_flow/block2/unit_1/xception_module/shortcut/BatchNorm/beta/read"
  input: "xception_65/entry_flow/block2/unit_1/xception_module/shortcut/BatchNorm/moving_mean/read"
  input: "xception_65/entry_flow/block2/unit_1/xception_module/shortcut/BatchNorm/moving_variance/read"
  attr {
    key: "T"
    value {
      type: DT_FLOAT
    }
  }
  attr {
    key: "_output_shapes"
    value {
      list {
        shape {
          dim {
            size: 1
          }
          dim {
            size: 65
          }
          dim {
            size: 65
          }
          dim {
            size: 256
          }
        }
        shape {
          dim {
            size: 256
          }
        }
        shape {
          dim {
            size: 256
          }
        }
        shape {
          dim {
            size: 256
          }
        }
        shape {
          dim {
            size: 256
          }
        }
      }
    }
  }
  attr {
    key: "data_format"
    value {
      s: "NHWC"
    }
  }
  attr {
    key: "epsilon"
    value {
      f: 0.0010000000474974513
    }
  }
  attr {
    key: "exponential_avg_factor"
    value {
      f: 1.0
    }
  }
  attr {
    key: "is_training"
    value {
      b: false
    }
  }
}
node {
  name: "xception_65/entry_flow/block2/unit_1/xception_module/add"
  op: "Add"
  input: "xception_65/entry_flow/block2/unit_1/xception_module/separable_conv3_pointwise/BatchNorm/FusedBatchNorm"
  input: "xception_65/entry_flow/block2/unit_1/xception_module/shortcut/BatchNorm/FusedBatchNorm"
  attr {
    key: "T"
    value {
      type: DT_FLOAT
    }
  }
  attr {
    key: "_output_shapes"
    value {
      list {
        shape {
          dim {
            size: 1
          }
          dim {
            size: 65
          }
          dim {
            size: 65
          }
          dim {
            size: 256
          }
        }
      }
    }
  }
}
node {
  name: "xception_65/entry_flow/block3/unit_1/xception_module/Relu"
  op: "Relu"
  input: "xception_65/entry_flow/block2/unit_1/xception_module/add"
  attr {
    key: "T"
    value {
      type: DT_FLOAT
    }
  }
  attr {
    key: "_output_shapes"
    value {
      list {
        shape {
          dim {
            size: 1
          }
          dim {
            size: 65
          }
          dim {
            size: 65
          }
          dim {
            size: 256
          }
        }
      }
    }
  }
}
node {
  name: "xception_65/entry_flow/block3/unit_1/xception_module/separable_conv1_depthwise/depthwise_weights/read"
  op: "Identity"
  input: "xception_65/entry_flow/block3/unit_1/xception_module/separable_conv1_depthwise/depthwise_weights"
  attr {
    key: "T"
    value {
      type: DT_FLOAT
    }
  }
  attr {
    key: "_class"
    value {
      list {
        s: "loc:@xception_65/entry_flow/block3/unit_1/xception_module/separable_conv1_depthwise/depthwise_weights"
      }
    }
  }
  attr {
    key: "_output_shapes"
    value {
      list {
        shape {
          dim {
            size: 3
          }
          dim {
            size: 3
          }
          dim {
            size: 256
          }
          dim {
            size: 1
          }
        }
      }
    }
  }
}
node {
  name: "xception_65/entry_flow/block3/unit_1/xception_module/separable_conv1_depthwise/depthwise"
  op: "DepthwiseConv2dNative"
  input: "xception_65/entry_flow/block3/unit_1/xception_module/Relu"
  input: "xception_65/entry_flow/block3/unit_1/xception_module/separable_conv1_depthwise/depthwise_weights/read"
  attr {
    key: "T"
    value {
      type: DT_FLOAT
    }
  }
  attr {
    key: "_output_shapes"
    value {
      list {
        shape {
          dim {
            size: 1
          }
          dim {
            size: 65
          }
          dim {
            size: 65
          }
          dim {
            size: 256
          }
        }
      }
    }
  }
  attr {
    key: "data_format"
    value {
      s: "NHWC"
    }
  }
  attr {
    key: "dilations"
    value {
      list {
        i: 1
        i: 1
        i: 1
        i: 1
      }
    }
  }
  attr {
    key: "explicit_paddings"
    value {
      list {
      }
    }
  }
  attr {
    key: "padding"
    value {
      s: "SAME"
    }
  }
  attr {
    key: "strides"
    value {
      list {
        i: 1
        i: 1
        i: 1
        i: 1
      }
    }
  }
}
node {
  name: "xception_65/entry_flow/block3/unit_1/xception_module/separable_conv1_depthwise/BatchNorm/gamma/read"
  op: "Identity"
  input: "xception_65/entry_flow/block3/unit_1/xception_module/separable_conv1_depthwise/BatchNorm/gamma"
  attr {
    key: "T"
    value {
      type: DT_FLOAT
    }
  }
  attr {
    key: "_class"
    value {
      list {
        s: "loc:@xception_65/entry_flow/block3/unit_1/xception_module/separable_conv1_depthwise/BatchNorm/gamma"
      }
    }
  }
  attr {
    key: "_output_shapes"
    value {
      list {
        shape {
          dim {
            size: 256
          }
        }
      }
    }
  }
}
node {
  name: "xception_65/entry_flow/block3/unit_1/xception_module/separable_conv1_depthwise/BatchNorm/beta/read"
  op: "Identity"
  input: "xception_65/entry_flow/block3/unit_1/xception_module/separable_conv1_depthwise/BatchNorm/beta"
  attr {
    key: "T"
    value {
      type: DT_FLOAT
    }
  }
  attr {
    key: "_class"
    value {
      list {
        s: "loc:@xception_65/entry_flow/block3/unit_1/xception_module/separable_conv1_depthwise/BatchNorm/beta"
      }
    }
  }
  attr {
    key: "_output_shapes"
    value {
      list {
        shape {
          dim {
            size: 256
          }
        }
      }
    }
  }
}
node {
  name: "xception_65/entry_flow/block3/unit_1/xception_module/separable_conv1_depthwise/BatchNorm/moving_mean/read"
  op: "Identity"
  input: "xception_65/entry_flow/block3/unit_1/xception_module/separable_conv1_depthwise/BatchNorm/moving_mean"
  attr {
    key: "T"
    value {
      type: DT_FLOAT
    }
  }
  attr {
    key: "_class"
    value {
      list {
        s: "loc:@xception_65/entry_flow/block3/unit_1/xception_module/separable_conv1_depthwise/BatchNorm/moving_mean"
      }
    }
  }
  attr {
    key: "_output_shapes"
    value {
      list {
        shape {
          dim {
            size: 256
          }
        }
      }
    }
  }
}
node {
  name: "xception_65/entry_flow/block3/unit_1/xception_module/separable_conv1_depthwise/BatchNorm/moving_variance/read"
  op: "Identity"
  input: "xception_65/entry_flow/block3/unit_1/xception_module/separable_conv1_depthwise/BatchNorm/moving_variance"
  attr {
    key: "T"
    value {
      type: DT_FLOAT
    }
  }
  attr {
    key: "_class"
    value {
      list {
        s: "loc:@xception_65/entry_flow/block3/unit_1/xception_module/separable_conv1_depthwise/BatchNorm/moving_variance"
      }
    }
  }
  attr {
    key: "_output_shapes"
    value {
      list {
        shape {
          dim {
            size: 256
          }
        }
      }
    }
  }
}
node {
  name: "xception_65/entry_flow/block3/unit_1/xception_module/separable_conv1_depthwise/BatchNorm/FusedBatchNorm"
  op: "FusedBatchNorm"
  input: "xception_65/entry_flow/block3/unit_1/xception_module/separable_conv1_depthwise/depthwise"
  input: "xception_65/entry_flow/block3/unit_1/xception_module/separable_conv1_depthwise/BatchNorm/gamma/read"
  input: "xception_65/entry_flow/block3/unit_1/xception_module/separable_conv1_depthwise/BatchNorm/beta/read"
  input: "xception_65/entry_flow/block3/unit_1/xception_module/separable_conv1_depthwise/BatchNorm/moving_mean/read"
  input: "xception_65/entry_flow/block3/unit_1/xception_module/separable_conv1_depthwise/BatchNorm/moving_variance/read"
  attr {
    key: "T"
    value {
      type: DT_FLOAT
    }
  }
  attr {
    key: "_output_shapes"
    value {
      list {
        shape {
          dim {
            size: 1
          }
          dim {
            size: 65
          }
          dim {
            size: 65
          }
          dim {
            size: 256
          }
        }
        shape {
          dim {
            size: 256
          }
        }
        shape {
          dim {
            size: 256
          }
        }
        shape {
          dim {
            size: 256
          }
        }
        shape {
          dim {
            size: 256
          }
        }
      }
    }
  }
  attr {
    key: "data_format"
    value {
      s: "NHWC"
    }
  }
  attr {
    key: "epsilon"
    value {
      f: 0.0010000000474974513
    }
  }
  attr {
    key: "exponential_avg_factor"
    value {
      f: 1.0
    }
  }
  attr {
    key: "is_training"
    value {
      b: false
    }
  }
}
node {
  name: "xception_65/entry_flow/block3/unit_1/xception_module/separable_conv1_pointwise/weights/read"
  op: "Identity"
  input: "xception_65/entry_flow/block3/unit_1/xception_module/separable_conv1_pointwise/weights"
  attr {
    key: "T"
    value {
      type: DT_FLOAT
    }
  }
  attr {
    key: "_class"
    value {
      list {
        s: "loc:@xception_65/entry_flow/block3/unit_1/xception_module/separable_conv1_pointwise/weights"
      }
    }
  }
  attr {
    key: "_output_shapes"
    value {
      list {
        shape {
          dim {
            size: 1
          }
          dim {
            size: 1
          }
          dim {
            size: 256
          }
          dim {
            size: 728
          }
        }
      }
    }
  }
}
node {
  name: "xception_65/entry_flow/block3/unit_1/xception_module/separable_conv1_pointwise/Conv2D"
  op: "Conv2D"
  input: "xception_65/entry_flow/block3/unit_1/xception_module/separable_conv1_depthwise/BatchNorm/FusedBatchNorm"
  input: "xception_65/entry_flow/block3/unit_1/xception_module/separable_conv1_pointwise/weights/read"
  attr {
    key: "T"
    value {
      type: DT_FLOAT
    }
  }
  attr {
    key: "_output_shapes"
    value {
      list {
        shape {
          dim {
            size: 1
          }
          dim {
            size: 65
          }
          dim {
            size: 65
          }
          dim {
            size: 728
          }
        }
      }
    }
  }
  attr {
    key: "data_format"
    value {
      s: "NHWC"
    }
  }
  attr {
    key: "dilations"
    value {
      list {
        i: 1
        i: 1
        i: 1
        i: 1
      }
    }
  }
  attr {
    key: "explicit_paddings"
    value {
      list {
      }
    }
  }
  attr {
    key: "padding"
    value {
      s: "SAME"
    }
  }
  attr {
    key: "strides"
    value {
      list {
        i: 1
        i: 1
        i: 1
        i: 1
      }
    }
  }
  attr {
    key: "use_cudnn_on_gpu"
    value {
      b: true
    }
  }
}
node {
  name: "xception_65/entry_flow/block3/unit_1/xception_module/separable_conv1_pointwise/BatchNorm/gamma/read"
  op: "Identity"
  input: "xception_65/entry_flow/block3/unit_1/xception_module/separable_conv1_pointwise/BatchNorm/gamma"
  attr {
    key: "T"
    value {
      type: DT_FLOAT
    }
  }
  attr {
    key: "_class"
    value {
      list {
        s: "loc:@xception_65/entry_flow/block3/unit_1/xception_module/separable_conv1_pointwise/BatchNorm/gamma"
      }
    }
  }
  attr {
    key: "_output_shapes"
    value {
      list {
        shape {
          dim {
            size: 728
          }
        }
      }
    }
  }
}
node {
  name: "xception_65/entry_flow/block3/unit_1/xception_module/separable_conv1_pointwise/BatchNorm/beta/read"
  op: "Identity"
  input: "xception_65/entry_flow/block3/unit_1/xception_module/separable_conv1_pointwise/BatchNorm/beta"
  attr {
    key: "T"
    value {
      type: DT_FLOAT
    }
  }
  attr {
    key: "_class"
    value {
      list {
        s: "loc:@xception_65/entry_flow/block3/unit_1/xception_module/separable_conv1_pointwise/BatchNorm/beta"
      }
    }
  }
  attr {
    key: "_output_shapes"
    value {
      list {
        shape {
          dim {
            size: 728
          }
        }
      }
    }
  }
}
node {
  name: "xception_65/entry_flow/block3/unit_1/xception_module/separable_conv1_pointwise/BatchNorm/moving_mean/read"
  op: "Identity"
  input: "xception_65/entry_flow/block3/unit_1/xception_module/separable_conv1_pointwise/BatchNorm/moving_mean"
  attr {
    key: "T"
    value {
      type: DT_FLOAT
    }
  }
  attr {
    key: "_class"
    value {
      list {
        s: "loc:@xception_65/entry_flow/block3/unit_1/xception_module/separable_conv1_pointwise/BatchNorm/moving_mean"
      }
    }
  }
  attr {
    key: "_output_shapes"
    value {
      list {
        shape {
          dim {
            size: 728
          }
        }
      }
    }
  }
}
node {
  name: "xception_65/entry_flow/block3/unit_1/xception_module/separable_conv1_pointwise/BatchNorm/moving_variance/read"
  op: "Identity"
  input: "xception_65/entry_flow/block3/unit_1/xception_module/separable_conv1_pointwise/BatchNorm/moving_variance"
  attr {
    key: "T"
    value {
      type: DT_FLOAT
    }
  }
  attr {
    key: "_class"
    value {
      list {
        s: "loc:@xception_65/entry_flow/block3/unit_1/xception_module/separable_conv1_pointwise/BatchNorm/moving_variance"
      }
    }
  }
  attr {
    key: "_output_shapes"
    value {
      list {
        shape {
          dim {
            size: 728
          }
        }
      }
    }
  }
}
node {
  name: "xception_65/entry_flow/block3/unit_1/xception_module/separable_conv1_pointwise/BatchNorm/FusedBatchNorm"
  op: "FusedBatchNorm"
  input: "xception_65/entry_flow/block3/unit_1/xception_module/separable_conv1_pointwise/Conv2D"
  input: "xception_65/entry_flow/block3/unit_1/xception_module/separable_conv1_pointwise/BatchNorm/gamma/read"
  input: "xception_65/entry_flow/block3/unit_1/xception_module/separable_conv1_pointwise/BatchNorm/beta/read"
  input: "xception_65/entry_flow/block3/unit_1/xception_module/separable_conv1_pointwise/BatchNorm/moving_mean/read"
  input: "xception_65/entry_flow/block3/unit_1/xception_module/separable_conv1_pointwise/BatchNorm/moving_variance/read"
  attr {
    key: "T"
    value {
      type: DT_FLOAT
    }
  }
  attr {
    key: "_output_shapes"
    value {
      list {
        shape {
          dim {
            size: 1
          }
          dim {
            size: 65
          }
          dim {
            size: 65
          }
          dim {
            size: 728
          }
        }
        shape {
          dim {
            size: 728
          }
        }
        shape {
          dim {
            size: 728
          }
        }
        shape {
          dim {
            size: 728
          }
        }
        shape {
          dim {
            size: 728
          }
        }
      }
    }
  }
  attr {
    key: "data_format"
    value {
      s: "NHWC"
    }
  }
  attr {
    key: "epsilon"
    value {
      f: 0.0010000000474974513
    }
  }
  attr {
    key: "exponential_avg_factor"
    value {
      f: 1.0
    }
  }
  attr {
    key: "is_training"
    value {
      b: false
    }
  }
}
node {
  name: "xception_65/entry_flow/block3/unit_1/xception_module/Relu_1"
  op: "Relu"
  input: "xception_65/entry_flow/block3/unit_1/xception_module/separable_conv1_pointwise/BatchNorm/FusedBatchNorm"
  attr {
    key: "T"
    value {
      type: DT_FLOAT
    }
  }
  attr {
    key: "_output_shapes"
    value {
      list {
        shape {
          dim {
            size: 1
          }
          dim {
            size: 65
          }
          dim {
            size: 65
          }
          dim {
            size: 728
          }
        }
      }
    }
  }
}
node {
  name: "xception_65/entry_flow/block3/unit_1/xception_module/separable_conv2_depthwise/depthwise_weights/read"
  op: "Identity"
  input: "xception_65/entry_flow/block3/unit_1/xception_module/separable_conv2_depthwise/depthwise_weights"
  attr {
    key: "T"
    value {
      type: DT_FLOAT
    }
  }
  attr {
    key: "_class"
    value {
      list {
        s: "loc:@xception_65/entry_flow/block3/unit_1/xception_module/separable_conv2_depthwise/depthwise_weights"
      }
    }
  }
  attr {
    key: "_output_shapes"
    value {
      list {
        shape {
          dim {
            size: 3
          }
          dim {
            size: 3
          }
          dim {
            size: 728
          }
          dim {
            size: 1
          }
        }
      }
    }
  }
}
node {
  name: "xception_65/entry_flow/block3/unit_1/xception_module/separable_conv2_depthwise/depthwise"
  op: "DepthwiseConv2dNative"
  input: "xception_65/entry_flow/block3/unit_1/xception_module/Relu_1"
  input: "xception_65/entry_flow/block3/unit_1/xception_module/separable_conv2_depthwise/depthwise_weights/read"
  attr {
    key: "T"
    value {
      type: DT_FLOAT
    }
  }
  attr {
    key: "_output_shapes"
    value {
      list {
        shape {
          dim {
            size: 1
          }
          dim {
            size: 65
          }
          dim {
            size: 65
          }
          dim {
            size: 728
          }
        }
      }
    }
  }
  attr {
    key: "data_format"
    value {
      s: "NHWC"
    }
  }
  attr {
    key: "dilations"
    value {
      list {
        i: 1
        i: 1
        i: 1
        i: 1
      }
    }
  }
  attr {
    key: "explicit_paddings"
    value {
      list {
      }
    }
  }
  attr {
    key: "padding"
    value {
      s: "SAME"
    }
  }
  attr {
    key: "strides"
    value {
      list {
        i: 1
        i: 1
        i: 1
        i: 1
      }
    }
  }
}
node {
  name: "xception_65/entry_flow/block3/unit_1/xception_module/separable_conv2_depthwise/BatchNorm/gamma/read"
  op: "Identity"
  input: "xception_65/entry_flow/block3/unit_1/xception_module/separable_conv2_depthwise/BatchNorm/gamma"
  attr {
    key: "T"
    value {
      type: DT_FLOAT
    }
  }
  attr {
    key: "_class"
    value {
      list {
        s: "loc:@xception_65/entry_flow/block3/unit_1/xception_module/separable_conv2_depthwise/BatchNorm/gamma"
      }
    }
  }
  attr {
    key: "_output_shapes"
    value {
      list {
        shape {
          dim {
            size: 728
          }
        }
      }
    }
  }
}
node {
  name: "xception_65/entry_flow/block3/unit_1/xception_module/separable_conv2_depthwise/BatchNorm/beta/read"
  op: "Identity"
  input: "xception_65/entry_flow/block3/unit_1/xception_module/separable_conv2_depthwise/BatchNorm/beta"
  attr {
    key: "T"
    value {
      type: DT_FLOAT
    }
  }
  attr {
    key: "_class"
    value {
      list {
        s: "loc:@xception_65/entry_flow/block3/unit_1/xception_module/separable_conv2_depthwise/BatchNorm/beta"
      }
    }
  }
  attr {
    key: "_output_shapes"
    value {
      list {
        shape {
          dim {
            size: 728
          }
        }
      }
    }
  }
}
node {
  name: "xception_65/entry_flow/block3/unit_1/xception_module/separable_conv2_depthwise/BatchNorm/moving_mean/read"
  op: "Identity"
  input: "xception_65/entry_flow/block3/unit_1/xception_module/separable_conv2_depthwise/BatchNorm/moving_mean"
  attr {
    key: "T"
    value {
      type: DT_FLOAT
    }
  }
  attr {
    key: "_class"
    value {
      list {
        s: "loc:@xception_65/entry_flow/block3/unit_1/xception_module/separable_conv2_depthwise/BatchNorm/moving_mean"
      }
    }
  }
  attr {
    key: "_output_shapes"
    value {
      list {
        shape {
          dim {
            size: 728
          }
        }
      }
    }
  }
}
node {
  name: "xception_65/entry_flow/block3/unit_1/xception_module/separable_conv2_depthwise/BatchNorm/moving_variance/read"
  op: "Identity"
  input: "xception_65/entry_flow/block3/unit_1/xception_module/separable_conv2_depthwise/BatchNorm/moving_variance"
  attr {
    key: "T"
    value {
      type: DT_FLOAT
    }
  }
  attr {
    key: "_class"
    value {
      list {
        s: "loc:@xception_65/entry_flow/block3/unit_1/xception_module/separable_conv2_depthwise/BatchNorm/moving_variance"
      }
    }
  }
  attr {
    key: "_output_shapes"
    value {
      list {
        shape {
          dim {
            size: 728
          }
        }
      }
    }
  }
}
node {
  name: "xception_65/entry_flow/block3/unit_1/xception_module/separable_conv2_depthwise/BatchNorm/FusedBatchNorm"
  op: "FusedBatchNorm"
  input: "xception_65/entry_flow/block3/unit_1/xception_module/separable_conv2_depthwise/depthwise"
  input: "xception_65/entry_flow/block3/unit_1/xception_module/separable_conv2_depthwise/BatchNorm/gamma/read"
  input: "xception_65/entry_flow/block3/unit_1/xception_module/separable_conv2_depthwise/BatchNorm/beta/read"
  input: "xception_65/entry_flow/block3/unit_1/xception_module/separable_conv2_depthwise/BatchNorm/moving_mean/read"
  input: "xception_65/entry_flow/block3/unit_1/xception_module/separable_conv2_depthwise/BatchNorm/moving_variance/read"
  attr {
    key: "T"
    value {
      type: DT_FLOAT
    }
  }
  attr {
    key: "_output_shapes"
    value {
      list {
        shape {
          dim {
            size: 1
          }
          dim {
            size: 65
          }
          dim {
            size: 65
          }
          dim {
            size: 728
          }
        }
        shape {
          dim {
            size: 728
          }
        }
        shape {
          dim {
            size: 728
          }
        }
        shape {
          dim {
            size: 728
          }
        }
        shape {
          dim {
            size: 728
          }
        }
      }
    }
  }
  attr {
    key: "data_format"
    value {
      s: "NHWC"
    }
  }
  attr {
    key: "epsilon"
    value {
      f: 0.0010000000474974513
    }
  }
  attr {
    key: "exponential_avg_factor"
    value {
      f: 1.0
    }
  }
  attr {
    key: "is_training"
    value {
      b: false
    }
  }
}
node {
  name: "xception_65/entry_flow/block3/unit_1/xception_module/separable_conv2_pointwise/weights/read"
  op: "Identity"
  input: "xception_65/entry_flow/block3/unit_1/xception_module/separable_conv2_pointwise/weights"
  attr {
    key: "T"
    value {
      type: DT_FLOAT
    }
  }
  attr {
    key: "_class"
    value {
      list {
        s: "loc:@xception_65/entry_flow/block3/unit_1/xception_module/separable_conv2_pointwise/weights"
      }
    }
  }
  attr {
    key: "_output_shapes"
    value {
      list {
        shape {
          dim {
            size: 1
          }
          dim {
            size: 1
          }
          dim {
            size: 728
          }
          dim {
            size: 728
          }
        }
      }
    }
  }
}
node {
  name: "xception_65/entry_flow/block3/unit_1/xception_module/separable_conv2_pointwise/Conv2D"
  op: "Conv2D"
  input: "xception_65/entry_flow/block3/unit_1/xception_module/separable_conv2_depthwise/BatchNorm/FusedBatchNorm"
  input: "xception_65/entry_flow/block3/unit_1/xception_module/separable_conv2_pointwise/weights/read"
  attr {
    key: "T"
    value {
      type: DT_FLOAT
    }
  }
  attr {
    key: "_output_shapes"
    value {
      list {
        shape {
          dim {
            size: 1
          }
          dim {
            size: 65
          }
          dim {
            size: 65
          }
          dim {
            size: 728
          }
        }
      }
    }
  }
  attr {
    key: "data_format"
    value {
      s: "NHWC"
    }
  }
  attr {
    key: "dilations"
    value {
      list {
        i: 1
        i: 1
        i: 1
        i: 1
      }
    }
  }
  attr {
    key: "explicit_paddings"
    value {
      list {
      }
    }
  }
  attr {
    key: "padding"
    value {
      s: "SAME"
    }
  }
  attr {
    key: "strides"
    value {
      list {
        i: 1
        i: 1
        i: 1
        i: 1
      }
    }
  }
  attr {
    key: "use_cudnn_on_gpu"
    value {
      b: true
    }
  }
}
node {
  name: "xception_65/entry_flow/block3/unit_1/xception_module/separable_conv2_pointwise/BatchNorm/gamma/read"
  op: "Identity"
  input: "xception_65/entry_flow/block3/unit_1/xception_module/separable_conv2_pointwise/BatchNorm/gamma"
  attr {
    key: "T"
    value {
      type: DT_FLOAT
    }
  }
  attr {
    key: "_class"
    value {
      list {
        s: "loc:@xception_65/entry_flow/block3/unit_1/xception_module/separable_conv2_pointwise/BatchNorm/gamma"
      }
    }
  }
  attr {
    key: "_output_shapes"
    value {
      list {
        shape {
          dim {
            size: 728
          }
        }
      }
    }
  }
}
node {
  name: "xception_65/entry_flow/block3/unit_1/xception_module/separable_conv2_pointwise/BatchNorm/beta/read"
  op: "Identity"
  input: "xception_65/entry_flow/block3/unit_1/xception_module/separable_conv2_pointwise/BatchNorm/beta"
  attr {
    key: "T"
    value {
      type: DT_FLOAT
    }
  }
  attr {
    key: "_class"
    value {
      list {
        s: "loc:@xception_65/entry_flow/block3/unit_1/xception_module/separable_conv2_pointwise/BatchNorm/beta"
      }
    }
  }
  attr {
    key: "_output_shapes"
    value {
      list {
        shape {
          dim {
            size: 728
          }
        }
      }
    }
  }
}
node {
  name: "xception_65/entry_flow/block3/unit_1/xception_module/separable_conv2_pointwise/BatchNorm/moving_mean/read"
  op: "Identity"
  input: "xception_65/entry_flow/block3/unit_1/xception_module/separable_conv2_pointwise/BatchNorm/moving_mean"
  attr {
    key: "T"
    value {
      type: DT_FLOAT
    }
  }
  attr {
    key: "_class"
    value {
      list {
        s: "loc:@xception_65/entry_flow/block3/unit_1/xception_module/separable_conv2_pointwise/BatchNorm/moving_mean"
      }
    }
  }
  attr {
    key: "_output_shapes"
    value {
      list {
        shape {
          dim {
            size: 728
          }
        }
      }
    }
  }
}
node {
  name: "xception_65/entry_flow/block3/unit_1/xception_module/separable_conv2_pointwise/BatchNorm/moving_variance/read"
  op: "Identity"
  input: "xception_65/entry_flow/block3/unit_1/xception_module/separable_conv2_pointwise/BatchNorm/moving_variance"
  attr {
    key: "T"
    value {
      type: DT_FLOAT
    }
  }
  attr {
    key: "_class"
…
  input: "aspp3_depthwise/BatchNorm/FusedBatchNorm"
  attr {
    key: "T"
    value {
      type: DT_FLOAT
    }
  }
  attr {
    key: "_output_shapes"
    value {
      list {
        shape {
          dim {
            size: 1
          }
          dim {
            size: 65
          }
          dim {
            size: 65
          }
          dim {
            size: 2048
          }
        }
      }
    }
  }
}
node {
  name: "aspp3_pointwise/weights/read"
  op: "Identity"
  input: "aspp3_pointwise/weights"
  attr {
    key: "T"
    value {
      type: DT_FLOAT
    }
  }
  attr {
    key: "_class"
    value {
      list {
        s: "loc:@aspp3_pointwise/weights"
      }
    }
  }
  attr {
    key: "_output_shapes"
    value {
      list {
        shape {
          dim {
            size: 1
          }
          dim {
            size: 1
          }
          dim {
            size: 2048
          }
          dim {
            size: 256
          }
        }
      }
    }
  }
}
node {
  name: "aspp3_pointwise/Conv2D"
  op: "Conv2D"
  input: "aspp3_depthwise/Relu"
  input: "aspp3_pointwise/weights/read"
  attr {
    key: "T"
    value {
      type: DT_FLOAT
    }
  }
  attr {
    key: "_output_shapes"
    value {
      list {
        shape {
          dim {
            size: 1
          }
          dim {
            size: 65
          }
          dim {
            size: 65
          }
          dim {
            size: 256
          }
        }
      }
    }
  }
  attr {
    key: "data_format"
    value {
      s: "NHWC"
    }
  }
  attr {
    key: "dilations"
    value {
      list {
        i: 1
        i: 1
        i: 1
        i: 1
      }
    }
  }
  attr {
    key: "explicit_paddings"
    value {
      list {
      }
    }
  }
  attr {
    key: "padding"
    value {
      s: "SAME"
    }
  }
  attr {
    key: "strides"
    value {
      list {
        i: 1
        i: 1
        i: 1
        i: 1
      }
    }
  }
  attr {
    key: "use_cudnn_on_gpu"
    value {
      b: true
    }
  }
}
node {
  name: "aspp3_pointwise/BatchNorm/gamma/read"
  op: "Identity"
  input: "aspp3_pointwise/BatchNorm/gamma"
  attr {
    key: "T"
    value {
      type: DT_FLOAT
    }
  }
  attr {
    key: "_class"
    value {
      list {
        s: "loc:@aspp3_pointwise/BatchNorm/gamma"
      }
    }
  }
  attr {
    key: "_output_shapes"
    value {
      list {
        shape {
          dim {
            size: 256
          }
        }
      }
    }
  }
}
node {
  name: "aspp3_pointwise/BatchNorm/beta/read"
  op: "Identity"
  input: "aspp3_pointwise/BatchNorm/beta"
  attr {
    key: "T"
    value {
      type: DT_FLOAT
    }
  }
  attr {
    key: "_class"
    value {
      list {
        s: "loc:@aspp3_pointwise/BatchNorm/beta"
      }
    }
  }
  attr {
    key: "_output_shapes"
    value {
      list {
        shape {
          dim {
            size: 256
          }
        }
      }
    }
  }
}
node {
  name: "aspp3_pointwise/BatchNorm/moving_mean/read"
  op: "Identity"
  input: "aspp3_pointwise/BatchNorm/moving_mean"
  attr {
    key: "T"
    value {
      type: DT_FLOAT
    }
  }
  attr {
    key: "_class"
    value {
      list {
        s: "loc:@aspp3_pointwise/BatchNorm/moving_mean"
      }
    }
  }
  attr {
    key: "_output_shapes"
    value {
      list {
        shape {
          dim {
            size: 256
          }
        }
      }
    }
  }
}
node {
  name: "aspp3_pointwise/BatchNorm/moving_variance/read"
  op: "Identity"
  input: "aspp3_pointwise/BatchNorm/moving_variance"
  attr {
    key: "T"
    value {
      type: DT_FLOAT
    }
  }
  attr {
    key: "_class"
    value {
      list {
        s: "loc:@aspp3_pointwise/BatchNorm/moving_variance"
      }
    }
  }
  attr {
    key: "_output_shapes"
    value {
      list {
        shape {
          dim {
            size: 256
          }
        }
      }
    }
  }
}
node {
  name: "aspp3_pointwise/BatchNorm/FusedBatchNorm"
  op: "FusedBatchNorm"
  input: "aspp3_pointwise/Conv2D"
  input: "aspp3_pointwise/BatchNorm/gamma/read"
  input: "aspp3_pointwise/BatchNorm/beta/read"
  input: "aspp3_pointwise/BatchNorm/moving_mean/read"
  input: "aspp3_pointwise/BatchNorm/moving_variance/read"
  attr {
    key: "T"
    value {
      type: DT_FLOAT
    }
  }
  attr {
    key: "_output_shapes"
    value {
      list {
        shape {
          dim {
            size: 1
          }
          dim {
            size: 65
          }
          dim {
            size: 65
          }
          dim {
            size: 256
          }
        }
        shape {
          dim {
            size: 256
          }
        }
        shape {
          dim {
            size: 256
          }
        }
        shape {
          dim {
            size: 256
          }
        }
        shape {
          dim {
            size: 256
          }
        }
      }
    }
  }
  attr {
    key: "data_format"
    value {
      s: "NHWC"
    }
  }
  attr {
    key: "epsilon"
    value {
      f: 1.0009999641624745e-05
    }
  }
  attr {
    key: "exponential_avg_factor"
    value {
      f: 1.0
    }
  }
  attr {
    key: "is_training"
    value {
      b: false
    }
  }
}
node {
  name: "aspp3_pointwise/Relu"
  op: "Relu"
  input: "aspp3_pointwise/BatchNorm/FusedBatchNorm"
  attr {
    key: "T"
    value {
      type: DT_FLOAT
    }
  }
  attr {
    key: "_output_shapes"
    value {
      list {
        shape {
          dim {
            size: 1
          }
          dim {
            size: 65
          }
          dim {
            size: 65
          }
          dim {
            size: 256
          }
        }
      }
    }
  }
}
node {
  name: "concat"
  op: "ConcatV2"
  input: "ResizeBilinear_1"
  input: "aspp0/Relu"
  input: "aspp1_pointwise/Relu"
  input: "aspp2_pointwise/Relu"
  input: "aspp3_pointwise/Relu"
  input: "concat/axis"
  attr {
    key: "N"
    value {
      i: 5
    }
  }
  attr {
    key: "T"
    value {
      type: DT_FLOAT
    }
  }
  attr {
    key: "Tidx"
    value {
      type: DT_INT32
    }
  }
  attr {
    key: "_output_shapes"
    value {
      list {
        shape {
          dim {
            size: 1
          }
          dim {
            size: 65
          }
          dim {
            size: 65
          }
          dim {
            size: 1280
          }
        }
      }
    }
  }
}
node {
  name: "concat_projection/weights/read"
  op: "Identity"
  input: "concat_projection/weights"
  attr {
    key: "T"
    value {
      type: DT_FLOAT
    }
  }
  attr {
    key: "_class"
    value {
      list {
        s: "loc:@concat_projection/weights"
      }
    }
  }
  attr {
    key: "_output_shapes"
    value {
      list {
        shape {
          dim {
            size: 1
          }
          dim {
            size: 1
          }
          dim {
            size: 1280
          }
          dim {
            size: 256
          }
        }
      }
    }
  }
}
node {
  name: "concat_projection/Conv2D"
  op: "Conv2D"
  input: "concat"
  input: "concat_projection/weights/read"
  attr {
    key: "T"
    value {
      type: DT_FLOAT
    }
  }
  attr {
    key: "_output_shapes"
    value {
      list {
        shape {
          dim {
            size: 1
          }
          dim {
            size: 65
          }
          dim {
            size: 65
          }
          dim {
            size: 256
          }
        }
      }
    }
  }
  attr {
    key: "data_format"
    value {
      s: "NHWC"
    }
  }
  attr {
    key: "dilations"
    value {
      list {
        i: 1
        i: 1
        i: 1
        i: 1
      }
    }
  }
  attr {
    key: "explicit_paddings"
    value {
      list {
      }
    }
  }
  attr {
    key: "padding"
    value {
      s: "SAME"
    }
  }
  attr {
    key: "strides"
    value {
      list {
        i: 1
        i: 1
        i: 1
        i: 1
      }
    }
  }
  attr {
    key: "use_cudnn_on_gpu"
    value {
      b: true
    }
  }
}
node {
  name: "concat_projection/BatchNorm/gamma/read"
  op: "Identity"
  input: "concat_projection/BatchNorm/gamma"
  attr {
    key: "T"
    value {
      type: DT_FLOAT
    }
  }
  attr {
    key: "_class"
    value {
      list {
        s: "loc:@concat_projection/BatchNorm/gamma"
      }
    }
  }
  attr {
    key: "_output_shapes"
    value {
      list {
        shape {
          dim {
            size: 256
          }
        }
      }
    }
  }
}
node {
  name: "concat_projection/BatchNorm/beta/read"
  op: "Identity"
  input: "concat_projection/BatchNorm/beta"
  attr {
    key: "T"
    value {
      type: DT_FLOAT
    }
  }
  attr {
    key: "_class"
    value {
      list {
        s: "loc:@concat_projection/BatchNorm/beta"
      }
    }
  }
  attr {
    key: "_output_shapes"
    value {
      list {
        shape {
          dim {
            size: 256
          }
        }
      }
    }
  }
}
node {
  name: "concat_projection/BatchNorm/moving_mean/read"
  op: "Identity"
  input: "concat_projection/BatchNorm/moving_mean"
  attr {
    key: "T"
    value {
      type: DT_FLOAT
    }
  }
  attr {
    key: "_class"
    value {
      list {
        s: "loc:@concat_projection/BatchNorm/moving_mean"
      }
    }
  }
  attr {
    key: "_output_shapes"
    value {
      list {
        shape {
          dim {
            size: 256
          }
        }
      }
    }
  }
}
node {
  name: "concat_projection/BatchNorm/moving_variance/read"
  op: "Identity"
  input: "concat_projection/BatchNorm/moving_variance"
  attr {
    key: "T"
    value {
      type: DT_FLOAT
    }
  }
  attr {
    key: "_class"
    value {
      list {
        s: "loc:@concat_projection/BatchNorm/moving_variance"
      }
    }
  }
  attr {
    key: "_output_shapes"
    value {
      list {
        shape {
          dim {
            size: 256
          }
        }
      }
    }
  }
}
node {
  name: "concat_projection/BatchNorm/FusedBatchNorm"
  op: "FusedBatchNorm"
  input: "concat_projection/Conv2D"
  input: "concat_projection/BatchNorm/gamma/read"
  input: "concat_projection/BatchNorm/beta/read"
  input: "concat_projection/BatchNorm/moving_mean/read"
  input: "concat_projection/BatchNorm/moving_variance/read"
  attr {
    key: "T"
    value {
      type: DT_FLOAT
    }
  }
  attr {
    key: "_output_shapes"
    value {
      list {
        shape {
          dim {
            size: 1
          }
          dim {
            size: 65
          }
          dim {
            size: 65
          }
          dim {
            size: 256
          }
        }
        shape {
          dim {
            size: 256
          }
        }
        shape {
          dim {
            size: 256
          }
        }
        shape {
          dim {
            size: 256
          }
        }
        shape {
          dim {
            size: 256
          }
        }
      }
    }
  }
  attr {
    key: "data_format"
    value {
      s: "NHWC"
    }
  }
  attr {
    key: "epsilon"
    value {
      f: 1.0009999641624745e-05
    }
  }
  attr {
    key: "exponential_avg_factor"
    value {
      f: 1.0
    }
  }
  attr {
    key: "is_training"
    value {
      b: false
    }
  }
}
node {
  name: "concat_projection/Relu"
  op: "Relu"
  input: "concat_projection/BatchNorm/FusedBatchNorm"
  attr {
    key: "T"
    value {
      type: DT_FLOAT
    }
  }
  attr {
    key: "_output_shapes"
    value {
      list {
        shape {
          dim {
            size: 1
          }
          dim {
            size: 65
          }
          dim {
            size: 65
          }
          dim {
            size: 256
          }
        }
      }
    }
  }
}
node {
  name: "concat_projection_dropout/Identity"
  op: "Identity"
  input: "concat_projection/Relu"
  attr {
    key: "T"
    value {
      type: DT_FLOAT
    }
  }
  attr {
    key: "_output_shapes"
    value {
      list {
        shape {
          dim {
            size: 1
          }
          dim {
            size: 65
          }
          dim {
            size: 65
          }
          dim {
            size: 256
          }
        }
      }
    }
  }
}
node {
  name: "decoder/feature_projection0/weights/read"
  op: "Identity"
  input: "decoder/feature_projection0/weights"
  attr {
    key: "T"
    value {
      type: DT_FLOAT
    }
  }
  attr {
    key: "_class"
    value {
      list {
        s: "loc:@decoder/feature_projection0/weights"
      }
    }
  }
  attr {
    key: "_output_shapes"
    value {
      list {
        shape {
          dim {
            size: 1
          }
          dim {
            size: 1
          }
          dim {
            size: 256
          }
          dim {
            size: 48
          }
        }
      }
    }
  }
}
node {
  name: "decoder/feature_projection0/Conv2D"
  op: "Conv2D"
  input: "xception_65/entry_flow/block2/unit_1/xception_module/separable_conv2_pointwise/BatchNorm/FusedBatchNorm"
  input: "decoder/feature_projection0/weights/read"
  attr {
    key: "T"
    value {
      type: DT_FLOAT
    }
  }
  attr {
    key: "_output_shapes"
    value {
      list {
        shape {
          dim {
            size: 1
          }
          dim {
            size: 129
          }
          dim {
            size: 129
          }
          dim {
            size: 48
          }
        }
      }
    }
  }
  attr {
    key: "data_format"
    value {
      s: "NHWC"
    }
  }
  attr {
    key: "dilations"
    value {
      list {
        i: 1
        i: 1
        i: 1
        i: 1
      }
    }
  }
  attr {
    key: "explicit_paddings"
    value {
      list {
      }
    }
  }
  attr {
    key: "padding"
    value {
      s: "SAME"
    }
  }
  attr {
    key: "strides"
    value {
      list {
        i: 1
        i: 1
        i: 1
        i: 1
      }
    }
  }
  attr {
    key: "use_cudnn_on_gpu"
    value {
      b: true
    }
  }
}
node {
  name: "decoder/feature_projection0/BatchNorm/gamma/read"
  op: "Identity"
  input: "decoder/feature_projection0/BatchNorm/gamma"
  attr {
    key: "T"
    value {
      type: DT_FLOAT
    }
  }
  attr {
    key: "_class"
    value {
      list {
        s: "loc:@decoder/feature_projection0/BatchNorm/gamma"
      }
    }
  }
  attr {
    key: "_output_shapes"
    value {
      list {
        shape {
          dim {
            size: 48
          }
        }
      }
    }
  }
}
node {
  name: "decoder/feature_projection0/BatchNorm/beta/read"
  op: "Identity"
  input: "decoder/feature_projection0/BatchNorm/beta"
  attr {
    key: "T"
    value {
      type: DT_FLOAT
    }
  }
  attr {
    key: "_class"
    value {
      list {
        s: "loc:@decoder/feature_projection0/BatchNorm/beta"
      }
    }
  }
  attr {
    key: "_output_shapes"
    value {
      list {
        shape {
          dim {
            size: 48
          }
        }
      }
    }
  }
}
node {
  name: "decoder/feature_projection0/BatchNorm/moving_mean/read"
  op: "Identity"
  input: "decoder/feature_projection0/BatchNorm/moving_mean"
  attr {
    key: "T"
    value {
      type: DT_FLOAT
    }
  }
  attr {
    key: "_class"
    value {
      list {
        s: "loc:@decoder/feature_projection0/BatchNorm/moving_mean"
      }
    }
  }
  attr {
    key: "_output_shapes"
    value {
      list {
        shape {
          dim {
            size: 48
          }
        }
      }
    }
  }
}
node {
  name: "decoder/feature_projection0/BatchNorm/moving_variance/read"
  op: "Identity"
  input: "decoder/feature_projection0/BatchNorm/moving_variance"
  attr {
    key: "T"
    value {
      type: DT_FLOAT
    }
  }
  attr {
    key: "_class"
    value {
      list {
        s: "loc:@decoder/feature_projection0/BatchNorm/moving_variance"
      }
    }
  }
  attr {
    key: "_output_shapes"
    value {
      list {
        shape {
          dim {
            size: 48
          }
        }
      }
    }
  }
}
node {
  name: "decoder/feature_projection0/BatchNorm/FusedBatchNorm"
  op: "FusedBatchNorm"
  input: "decoder/feature_projection0/Conv2D"
  input: "decoder/feature_projection0/BatchNorm/gamma/read"
  input: "decoder/feature_projection0/BatchNorm/beta/read"
  input: "decoder/feature_projection0/BatchNorm/moving_mean/read"
  input: "decoder/feature_projection0/BatchNorm/moving_variance/read"
  attr {
    key: "T"
    value {
      type: DT_FLOAT
    }
  }
  attr {
    key: "_output_shapes"
    value {
      list {
        shape {
          dim {
            size: 1
          }
          dim {
            size: 129
          }
          dim {
            size: 129
          }
          dim {
            size: 48
          }
        }
        shape {
          dim {
            size: 48
          }
        }
        shape {
          dim {
            size: 48
          }
        }
        shape {
          dim {
            size: 48
          }
        }
        shape {
          dim {
            size: 48
          }
        }
      }
    }
  }
  attr {
    key: "data_format"
    value {
      s: "NHWC"
    }
  }
  attr {
    key: "epsilon"
    value {
      f: 1.0009999641624745e-05
    }
  }
  attr {
    key: "exponential_avg_factor"
    value {
      f: 1.0
    }
  }
  attr {
    key: "is_training"
    value {
      b: false
    }
  }
}
node {
  name: "decoder/feature_projection0/Relu"
  op: "Relu"
  input: "decoder/feature_projection0/BatchNorm/FusedBatchNorm"
  attr {
    key: "T"
    value {
      type: DT_FLOAT
    }
  }
  attr {
    key: "_output_shapes"
    value {
      list {
        shape {
          dim {
            size: 1
          }
          dim {
            size: 129
          }
          dim {
            size: 129
          }
          dim {
            size: 48
          }
        }
      }
    }
  }
}
node {
  name: "decoder/ResizeBilinear"
  op: "ResizeBilinear"
  input: "concat_projection_dropout/Identity"
  input: "decoder/ResizeBilinear/size"
  attr {
    key: "T"
    value {
      type: DT_FLOAT
    }
  }
  attr {
    key: "_output_shapes"
    value {
      list {
        shape {
          dim {
            size: 1
          }
          dim {
            size: 129
          }
          dim {
            size: 129
          }
          dim {
            size: 256
          }
        }
      }
    }
  }
  attr {
    key: "align_corners"
    value {
      b: true
    }
  }
  attr {
    key: "half_pixel_centers"
    value {
      b: false
    }
  }
}
node {
  name: "decoder/ResizeBilinear_1"
  op: "ResizeBilinear"
  input: "decoder/feature_projection0/Relu"
  input: "decoder/ResizeBilinear_1/size"
  attr {
    key: "T"
    value {
      type: DT_FLOAT
    }
  }
  attr {
    key: "_output_shapes"
    value {
      list {
        shape {
          dim {
            size: 1
          }
          dim {
            size: 129
          }
          dim {
            size: 129
          }
          dim {
            size: 48
          }
        }
      }
    }
  }
  attr {
    key: "align_corners"
    value {
      b: true
    }
  }
  attr {
    key: "half_pixel_centers"
    value {
      b: false
    }
  }
}
node {
  name: "decoder/concat"
  op: "ConcatV2"
  input: "decoder/ResizeBilinear"
  input: "decoder/ResizeBilinear_1"
  input: "decoder/concat/axis"
  attr {
    key: "N"
    value {
      i: 2
    }
  }
  attr {
    key: "T"
    value {
      type: DT_FLOAT
    }
  }
  attr {
    key: "Tidx"
    value {
      type: DT_INT32
    }
  }
  attr {
    key: "_output_shapes"
    value {
      list {
        shape {
          dim {
            size: 1
          }
          dim {
            size: 129
          }
          dim {
            size: 129
          }
          dim {
            size: 304
          }
        }
      }
    }
  }
}
node {
  name: "decoder/decoder_conv0_depthwise/depthwise_weights/read"
  op: "Identity"
  input: "decoder/decoder_conv0_depthwise/depthwise_weights"
  attr {
    key: "T"
    value {
      type: DT_FLOAT
    }
  }
  attr {
    key: "_class"
    value {
      list {
        s: "loc:@decoder/decoder_conv0_depthwise/depthwise_weights"
      }
    }
  }
  attr {
    key: "_output_shapes"
    value {
      list {
        shape {
          dim {
            size: 3
          }
          dim {
            size: 3
          }
          dim {
            size: 304
          }
          dim {
            size: 1
          }
        }
      }
    }
  }
}
node {
  name: "decoder/decoder_conv0_depthwise/depthwise"
  op: "DepthwiseConv2dNative"
  input: "decoder/concat"
  input: "decoder/decoder_conv0_depthwise/depthwise_weights/read"
  attr {
    key: "T"
    value {
      type: DT_FLOAT
    }
  }
  attr {
    key: "_output_shapes"
    value {
      list {
        shape {
          dim {
            size: 1
          }
          dim {
            size: 129
          }
          dim {
            size: 129
          }
          dim {
            size: 304
          }
        }
      }
    }
  }
  attr {
    key: "data_format"
    value {
      s: "NHWC"
    }
  }
  attr {
    key: "dilations"
    value {
      list {
        i: 1
        i: 1
        i: 1
        i: 1
      }
    }
  }
  attr {
    key: "explicit_paddings"
    value {
      list {
      }
    }
  }
  attr {
    key: "padding"
    value {
      s: "SAME"
    }
  }
  attr {
    key: "strides"
    value {
      list {
        i: 1
        i: 1
        i: 1
        i: 1
      }
    }
  }
}
node {
  name: "decoder/decoder_conv0_depthwise/BatchNorm/gamma/read"
  op: "Identity"
  input: "decoder/decoder_conv0_depthwise/BatchNorm/gamma"
  attr {
    key: "T"
    value {
      type: DT_FLOAT
    }
  }
  attr {
    key: "_class"
    value {
      list {
        s: "loc:@decoder/decoder_conv0_depthwise/BatchNorm/gamma"
      }
    }
  }
  attr {
    key: "_output_shapes"
    value {
      list {
        shape {
          dim {
            size: 304
          }
        }
      }
    }
  }
}
node {
  name: "decoder/decoder_conv0_depthwise/BatchNorm/beta/read"
  op: "Identity"
  input: "decoder/decoder_conv0_depthwise/BatchNorm/beta"
  attr {
    key: "T"
    value {
      type: DT_FLOAT
    }
  }
  attr {
    key: "_class"
    value {
      list {
        s: "loc:@decoder/decoder_conv0_depthwise/BatchNorm/beta"
      }
    }
  }
  attr {
    key: "_output_shapes"
    value {
      list {
        shape {
          dim {
            size: 304
          }
        }
      }
    }
  }
}
node {
  name: "decoder/decoder_conv0_depthwise/BatchNorm/moving_mean/read"
  op: "Identity"
  input: "decoder/decoder_conv0_depthwise/BatchNorm/moving_mean"
  attr {
    key: "T"
    value {
      type: DT_FLOAT
    }
  }
  attr {
    key: "_class"
    value {
      list {
        s: "loc:@decoder/decoder_conv0_depthwise/BatchNorm/moving_mean"
      }
    }
  }
  attr {
    key: "_output_shapes"
    value {
      list {
        shape {
          dim {
            size: 304
          }
        }
      }
    }
  }
}
node {
  name: "decoder/decoder_conv0_depthwise/BatchNorm/moving_variance/read"
  op: "Identity"
  input: "decoder/decoder_conv0_depthwise/BatchNorm/moving_variance"
  attr {
    key: "T"
    value {
      type: DT_FLOAT
    }
  }
  attr {
    key: "_class"
    value {
      list {
        s: "loc:@decoder/decoder_conv0_depthwise/BatchNorm/moving_variance"
      }
    }
  }
  attr {
    key: "_output_shapes"
    value {
      list {
        shape {
          dim {
            size: 304
          }
        }
      }
    }
  }
}
node {
  name: "decoder/decoder_conv0_depthwise/BatchNorm/FusedBatchNorm"
  op: "FusedBatchNorm"
  input: "decoder/decoder_conv0_depthwise/depthwise"
  input: "decoder/decoder_conv0_depthwise/BatchNorm/gamma/read"
  input: "decoder/decoder_conv0_depthwise/BatchNorm/beta/read"
  input: "decoder/decoder_conv0_depthwise/BatchNorm/moving_mean/read"
  input: "decoder/decoder_conv0_depthwise/BatchNorm/moving_variance/read"
  attr {
    key: "T"
    value {
      type: DT_FLOAT
    }
  }
  attr {
    key: "_output_shapes"
    value {
      list {
        shape {
          dim {
            size: 1
          }
          dim {
            size: 129
          }
          dim {
            size: 129
          }
          dim {
            size: 304
          }
        }
        shape {
          dim {
            size: 304
          }
        }
        shape {
          dim {
            size: 304
          }
        }
        shape {
          dim {
            size: 304
          }
        }
        shape {
          dim {
            size: 304
          }
        }
      }
    }
  }
  attr {
    key: "data_format"
    value {
      s: "NHWC"
    }
  }
  attr {
    key: "epsilon"
    value {
      f: 1.0009999641624745e-05
    }
  }
  attr {
    key: "exponential_avg_factor"
    value {
      f: 1.0
    }
  }
  attr {
    key: "is_training"
    value {
      b: false
    }
  }
}
node {
  name: "decoder/decoder_conv0_depthwise/Relu"
  op: "Relu"
  input: "decoder/decoder_conv0_depthwise/BatchNorm/FusedBatchNorm"
  attr {
    key: "T"
    value {
      type: DT_FLOAT
    }
  }
  attr {
    key: "_output_shapes"
    value {
      list {
        shape {
          dim {
            size: 1
          }
          dim {
            size: 129
          }
          dim {
            size: 129
          }
          dim {
            size: 304
          }
        }
      }
    }
  }
}
node {
  name: "decoder/decoder_conv0_pointwise/weights/read"
  op: "Identity"
  input: "decoder/decoder_conv0_pointwise/weights"
  attr {
    key: "T"
    value {
      type: DT_FLOAT
    }
  }
  attr {
    key: "_class"
    value {
      list {
        s: "loc:@decoder/decoder_conv0_pointwise/weights"
      }
    }
  }
  attr {
    key: "_output_shapes"
    value {
      list {
        shape {
          dim {
            size: 1
          }
          dim {
            size: 1
          }
          dim {
            size: 304
          }
          dim {
            size: 256
          }
        }
      }
    }
  }
}
node {
  name: "decoder/decoder_conv0_pointwise/Conv2D"
  op: "Conv2D"
  input: "decoder/decoder_conv0_depthwise/Relu"
  input: "decoder/decoder_conv0_pointwise/weights/read"
  attr {
    key: "T"
    value {
      type: DT_FLOAT
    }
  }
  attr {
    key: "_output_shapes"
    value {
      list {
        shape {
          dim {
            size: 1
          }
          dim {
            size: 129
          }
          dim {
            size: 129
          }
          dim {
            size: 256
          }
        }
      }
    }
  }
  attr {
    key: "data_format"
    value {
      s: "NHWC"
    }
  }
  attr {
    key: "dilations"
    value {
      list {
        i: 1
        i: 1
        i: 1
        i: 1
      }
    }
  }
  attr {
    key: "explicit_paddings"
    value {
      list {
      }
    }
  }
  attr {
    key: "padding"
    value {
      s: "SAME"
    }
  }
  attr {
    key: "strides"
    value {
      list {
        i: 1
        i: 1
        i: 1
        i: 1
      }
    }
  }
  attr {
    key: "use_cudnn_on_gpu"
    value {
      b: true
    }
  }
}
node {
  name: "decoder/decoder_conv0_pointwise/BatchNorm/gamma/read"
  op: "Identity"
  input: "decoder/decoder_conv0_pointwise/BatchNorm/gamma"
  attr {
    key: "T"
    value {
      type: DT_FLOAT
    }
  }
  attr {
    key: "_class"
    value {
      list {
        s: "loc:@decoder/decoder_conv0_pointwise/BatchNorm/gamma"
      }
    }
  }
  attr {
    key: "_output_shapes"
    value {
      list {
        shape {
          dim {
            size: 256
          }
        }
      }
    }
  }
}
node {
  name: "decoder/decoder_conv0_pointwise/BatchNorm/beta/read"
  op: "Identity"
  input: "decoder/decoder_conv0_pointwise/BatchNorm/beta"
  attr {
    key: "T"
    value {
      type: DT_FLOAT
    }
  }
  attr {
    key: "_class"
    value {
      list {
        s: "loc:@decoder/decoder_conv0_pointwise/BatchNorm/beta"
      }
    }
  }
  attr {
    key: "_output_shapes"
    value {
      list {
        shape {
          dim {
            size: 256
          }
        }
      }
    }
  }
}
node {
  name: "decoder/decoder_conv0_pointwise/BatchNorm/moving_mean/read"
  op: "Identity"
  input: "decoder/decoder_conv0_pointwise/BatchNorm/moving_mean"
  attr {
    key: "T"
    value {
      type: DT_FLOAT
    }
  }
  attr {
    key: "_class"
    value {
      list {
        s: "loc:@decoder/decoder_conv0_pointwise/BatchNorm/moving_mean"
      }
    }
  }
  attr {
    key: "_output_shapes"
    value {
      list {
        shape {
          dim {
            size: 256
          }
        }
      }
    }
  }
}
node {
  name: "decoder/decoder_conv0_pointwise/BatchNorm/moving_variance/read"
  op: "Identity"
  input: "decoder/decoder_conv0_pointwise/BatchNorm/moving_variance"
  attr {
    key: "T"
    value {
      type: DT_FLOAT
    }
  }
  attr {
    key: "_class"
    value {
      list {
        s: "loc:@decoder/decoder_conv0_pointwise/BatchNorm/moving_variance"
      }
    }
  }
  attr {
    key: "_output_shapes"
    value {
      list {
        shape {
          dim {
            size: 256
          }
        }
      }
    }
  }
}
node {
  name: "decoder/decoder_conv0_pointwise/BatchNorm/FusedBatchNorm"
  op: "FusedBatchNorm"
  input: "decoder/decoder_conv0_pointwise/Conv2D"
  input: "decoder/decoder_conv0_pointwise/BatchNorm/gamma/read"
  input: "decoder/decoder_conv0_pointwise/BatchNorm/beta/read"
  input: "decoder/decoder_conv0_pointwise/BatchNorm/moving_mean/read"
  input: "decoder/decoder_conv0_pointwise/BatchNorm/moving_variance/read"
  attr {
    key: "T"
    value {
      type: DT_FLOAT
    }
  }
  attr {
    key: "_output_shapes"
    value {
      list {
        shape {
          dim {
            size: 1
          }
          dim {
            size: 129
          }
          dim {
            size: 129
          }
          dim {
            size: 256
          }
        }
        shape {
          dim {
            size: 256
          }
        }
        shape {
          dim {
            size: 256
          }
        }
        shape {
          dim {
            size: 256
          }
        }
        shape {
          dim {
            size: 256
          }
        }
      }
    }
  }
  attr {
    key: "data_format"
    value {
      s: "NHWC"
    }
  }
  attr {
    key: "epsilon"
    value {
      f: 1.0009999641624745e-05
    }
  }
  attr {
    key: "exponential_avg_factor"
    value {
      f: 1.0
    }
  }
  attr {
    key: "is_training"
    value {
      b: false
    }
  }
}
node {
  name: "decoder/decoder_conv0_pointwise/Relu"
  op: "Relu"
  input: "decoder/decoder_conv0_pointwise/BatchNorm/FusedBatchNorm"
  attr {
    key: "T"
    value {
      type: DT_FLOAT
    }
  }
  attr {
    key: "_output_shapes"
    value {
      list {
        shape {
          dim {
            size: 1
          }
          dim {
            size: 129
          }
          dim {
            size: 129
          }
          dim {
            size: 256
          }
        }
      }
    }
  }
}
node {
  name: "decoder/decoder_conv1_depthwise/depthwise_weights/read"
  op: "Identity"
  input: "decoder/decoder_conv1_depthwise/depthwise_weights"
  attr {
    key: "T"
    value {
      type: DT_FLOAT
    }
  }
  attr {
    key: "_class"
    value {
      list {
        s: "loc:@decoder/decoder_conv1_depthwise/depthwise_weights"
      }
    }
  }
  attr {
    key: "_output_shapes"
    value {
      list {
        shape {
          dim {
            size: 3
          }
          dim {
            size: 3
          }
          dim {
            size: 256
          }
          dim {
            size: 1
          }
        }
      }
    }
  }
}
node {
  name: "decoder/decoder_conv1_depthwise/depthwise"
  op: "DepthwiseConv2dNative"
  input: "decoder/decoder_conv0_pointwise/Relu"
  input: "decoder/decoder_conv1_depthwise/depthwise_weights/read"
  attr {
    key: "T"
    value {
      type: DT_FLOAT
    }
  }
  attr {
    key: "_output_shapes"
    value {
      list {
        shape {
          dim {
            size: 1
          }
          dim {
            size: 129
          }
          dim {
            size: 129
          }
          dim {
            size: 256
          }
        }
      }
    }
  }
  attr {
    key: "data_format"
    value {
      s: "NHWC"
    }
  }
  attr {
    key: "dilations"
    value {
      list {
        i: 1
        i: 1
        i: 1
        i: 1
      }
    }
  }
  attr {
    key: "explicit_paddings"
    value {
      list {
      }
    }
  }
  attr {
    key: "padding"
    value {
      s: "SAME"
    }
  }
  attr {
    key: "strides"
    value {
      list {
        i: 1
        i: 1
        i: 1
        i: 1
      }
    }
  }
}
node {
  name: "decoder/decoder_conv1_depthwise/BatchNorm/gamma/read"
  op: "Identity"
  input: "decoder/decoder_conv1_depthwise/BatchNorm/gamma"
  attr {
    key: "T"
    value {
      type: DT_FLOAT
    }
  }
  attr {
    key: "_class"
    value {
      list {
        s: "loc:@decoder/decoder_conv1_depthwise/BatchNorm/gamma"
      }
    }
  }
  attr {
    key: "_output_shapes"
    value {
      list {
        shape {
          dim {
            size: 256
          }
        }
      }
    }
  }
}
node {
  name: "decoder/decoder_conv1_depthwise/BatchNorm/beta/read"
  op: "Identity"
  input: "decoder/decoder_conv1_depthwise/BatchNorm/beta"
  attr {
    key: "T"
    value {
      type: DT_FLOAT
    }
  }
  attr {
    key: "_class"
    value {
      list {
        s: "loc:@decoder/decoder_conv1_depthwise/BatchNorm/beta"
      }
    }
  }
  attr {
    key: "_output_shapes"
    value {
      list {
        shape {
          dim {
            size: 256
          }
        }
      }
    }
  }
}
node {
  name: "decoder/decoder_conv1_depthwise/BatchNorm/moving_mean/read"
  op: "Identity"
  input: "decoder/decoder_conv1_depthwise/BatchNorm/moving_mean"
  attr {
    key: "T"
    value {
      type: DT_FLOAT
    }
  }
  attr {
    key: "_class"
    value {
      list {
        s: "loc:@decoder/decoder_conv1_depthwise/BatchNorm/moving_mean"
      }
    }
  }
  attr {
    key: "_output_shapes"
    value {
      list {
        shape {
          dim {
            size: 256
          }
        }
      }
    }
  }
}
node {
  name: "decoder/decoder_conv1_depthwise/BatchNorm/moving_variance/read"
  op: "Identity"
  input: "decoder/decoder_conv1_depthwise/BatchNorm/moving_variance"
  attr {
    key: "T"
    value {
      type: DT_FLOAT
    }
  }
  attr {
    key: "_class"
    value {
      list {
        s: "loc:@decoder/decoder_conv1_depthwise/BatchNorm/moving_variance"
      }
    }
  }
  attr {
    key: "_output_shapes"
    value {
      list {
        shape {
          dim {
            size: 256
          }
        }
      }
    }
  }
}
node {
  name: "decoder/decoder_conv1_depthwise/BatchNorm/FusedBatchNorm"
  op: "FusedBatchNorm"
  input: "decoder/decoder_conv1_depthwise/depthwise"
  input: "decoder/decoder_conv1_depthwise/BatchNorm/gamma/read"
  input: "decoder/decoder_conv1_depthwise/BatchNorm/beta/read"
  input: "decoder/decoder_conv1_depthwise/BatchNorm/moving_mean/read"
  input: "decoder/decoder_conv1_depthwise/BatchNorm/moving_variance/read"
  attr {
    key: "T"
    value {
      type: DT_FLOAT
    }
  }
  attr {
    key: "_output_shapes"
    value {
      list {
        shape {
          dim {
            size: 1
          }
          dim {
            size: 129
          }
          dim {
            size: 129
          }
          dim {
            size: 256
          }
        }
        shape {
          dim {
            size: 256
          }
        }
        shape {
          dim {
            size: 256
          }
        }
        shape {
          dim {
            size: 256
          }
        }
        shape {
          dim {
            size: 256
          }
        }
      }
    }
  }
  attr {
    key: "data_format"
    value {
      s: "NHWC"
    }
  }
  attr {
    key: "epsilon"
    value {
      f: 1.0009999641624745e-05
    }
  }
  attr {
    key: "exponential_avg_factor"
    value {
      f: 1.0
    }
  }
  attr {
    key: "is_training"
    value {
      b: false
    }
  }
}
node {
  name: "decoder/decoder_conv1_depthwise/Relu"
  op: "Relu"
  input: "decoder/decoder_conv1_depthwise/BatchNorm/FusedBatchNorm"
  attr {
    key: "T"
    value {
      type: DT_FLOAT
    }
  }
  attr {
    key: "_output_shapes"
    value {
      list {
        shape {
          dim {
            size: 1
          }
          dim {
            size: 129
          }
          dim {
            size: 129
          }
          dim {
            size: 256
          }
        }
      }
    }
  }
}
node {
  name: "decoder/decoder_conv1_pointwise/weights/read"
  op: "Identity"
  input: "decoder/decoder_conv1_pointwise/weights"
  attr {
    key: "T"
    value {
      type: DT_FLOAT
    }
  }
  attr {
    key: "_class"
    value {
      list {
        s: "loc:@decoder/decoder_conv1_pointwise/weights"
      }
    }
  }
  attr {
    key: "_output_shapes"
    value {
      list {
        shape {
          dim {
            size: 1
          }
          dim {
            size: 1
          }
          dim {
            size: 256
          }
          dim {
            size: 256
          }
        }
      }
    }
  }
}
node {
  name: "decoder/decoder_conv1_pointwise/Conv2D"
  op: "Conv2D"
  input: "decoder/decoder_conv1_depthwise/Relu"
  input: "decoder/decoder_conv1_pointwise/weights/read"
  attr {
    key: "T"
    value {
      type: DT_FLOAT
    }
  }
  attr {
    key: "_output_shapes"
    value {
      list {
        shape {
          dim {
            size: 1
          }
          dim {
            size: 129
          }
          dim {
            size: 129
          }
          dim {
            size: 256
          }
        }
      }
    }
  }
  attr {
    key: "data_format"
    value {
      s: "NHWC"
    }
  }
  attr {
    key: "dilations"
    value {
      list {
        i: 1
        i: 1
        i: 1
        i: 1
      }
    }
  }
  attr {
    key: "explicit_paddings"
    value {
      list {
      }
    }
  }
  attr {
    key: "padding"
    value {
      s: "SAME"
    }
  }
  attr {
    key: "strides"
    value {
      list {
        i: 1
        i: 1
        i: 1
        i: 1
      }
    }
  }
  attr {
    key: "use_cudnn_on_gpu"
    value {
      b: true
    }
  }
}
node {
  name: "decoder/decoder_conv1_pointwise/BatchNorm/gamma/read"
  op: "Identity"
  input: "decoder/decoder_conv1_pointwise/BatchNorm/gamma"
  attr {
    key: "T"
    value {
      type: DT_FLOAT
    }
  }
  attr {
    key: "_class"
    value {
      list {
        s: "loc:@decoder/decoder_conv1_pointwise/BatchNorm/gamma"
      }
    }
  }
  attr {
    key: "_output_shapes"
    value {
      list {
        shape {
          dim {
            size: 256
          }
        }
      }
    }
  }
}
node {
  name: "decoder/decoder_conv1_pointwise/BatchNorm/beta/read"
  op: "Identity"
  input: "decoder/decoder_conv1_pointwise/BatchNorm/beta"
  attr {
    key: "T"
    value {
      type: DT_FLOAT
    }
  }
  attr {
    key: "_class"
    value {
      list {
        s: "loc:@decoder/decoder_conv1_pointwise/BatchNorm/beta"
      }
    }
  }
  attr {
    key: "_output_shapes"
    value {
      list {
        shape {
          dim {
            size: 256
          }
        }
      }
    }
  }
}
node {
  name: "decoder/decoder_conv1_pointwise/BatchNorm/moving_mean/read"
  op: "Identity"
  input: "decoder/decoder_conv1_pointwise/BatchNorm/moving_mean"
  attr {
    key: "T"
    value {
      type: DT_FLOAT
    }
  }
  attr {
    key: "_class"
    value {
      list {
        s: "loc:@decoder/decoder_conv1_pointwise/BatchNorm/moving_mean"
      }
    }
  }
  attr {
    key: "_output_shapes"
    value {
      list {
        shape {
          dim {
            size: 256
          }
        }
      }
    }
  }
}
node {
  name: "decoder/decoder_conv1_pointwise/BatchNorm/moving_variance/read"
  op: "Identity"
  input: "decoder/decoder_conv1_pointwise/BatchNorm/moving_variance"
  attr {
    key: "T"
    value {
      type: DT_FLOAT
    }
  }
  attr {
    key: "_class"
    value {
      list {
        s: "loc:@decoder/decoder_conv1_pointwise/BatchNorm/moving_variance"
      }
    }
  }
  attr {
    key: "_output_shapes"
    value {
      list {
        shape {
          dim {
            size: 256
          }
        }
      }
    }
  }
}
node {
  name: "decoder/decoder_conv1_pointwise/BatchNorm/FusedBatchNorm"
  op: "FusedBatchNorm"
  input: "decoder/decoder_conv1_pointwise/Conv2D"
  input: "decoder/decoder_conv1_pointwise/BatchNorm/gamma/read"
  input: "decoder/decoder_conv1_pointwise/BatchNorm/beta/read"
  input: "decoder/decoder_conv1_pointwise/BatchNorm/moving_mean/read"
  input: "decoder/decoder_conv1_pointwise/BatchNorm/moving_variance/read"
  attr {
    key: "T"
    value {
      type: DT_FLOAT
    }
  }
  attr {
    key: "_output_shapes"
    value {
      list {
        shape {
          dim {
            size: 1
          }
          dim {
            size: 129
          }
          dim {
            size: 129
          }
          dim {
            size: 256
          }
        }
        shape {
          dim {
            size: 256
          }
        }
        shape {
          dim {
            size: 256
          }
        }
        shape {
          dim {
            size: 256
          }
        }
        shape {
          dim {
            size: 256
          }
        }
      }
    }
  }
  attr {
    key: "data_format"
    value {
      s: "NHWC"
    }
  }
  attr {
    key: "epsilon"
    value {
      f: 1.0009999641624745e-05
    }
  }
  attr {
    key: "exponential_avg_factor"
    value {
      f: 1.0
    }
  }
  attr {
    key: "is_training"
    value {
      b: false
    }
  }
}
node {
  name: "decoder/decoder_conv1_pointwise/Relu"
  op: "Relu"
  input: "decoder/decoder_conv1_pointwise/BatchNorm/FusedBatchNorm"
  attr {
    key: "T"
    value {
      type: DT_FLOAT
    }
  }
  attr {
    key: "_output_shapes"
    value {
      list {
        shape {
          dim {
            size: 1
          }
          dim {
            size: 129
          }
          dim {
            size: 129
          }
          dim {
            size: 256
          }
        }
      }
    }
  }
}
node {
  name: "logits/semantic/weights/read"
  op: "Identity"
  input: "logits/semantic/weights"
  attr {
    key: "T"
    value {
      type: DT_FLOAT
    }
  }
  attr {
    key: "_class"
    value {
      list {
        s: "loc:@logits/semantic/weights"
      }
    }
  }
  attr {
    key: "_output_shapes"
    value {
      list {
        shape {
          dim {
            size: 1
          }
          dim {
            size: 1
          }
          dim {
            size: 256
          }
          dim {
            size: 21
          }
        }
      }
    }
  }
}
node {
  name: "logits/semantic/biases/read"
  op: "Identity"
  input: "logits/semantic/biases"
  attr {
    key: "T"
    value {
      type: DT_FLOAT
    }
  }
  attr {
    key: "_class"
    value {
      list {
        s: "loc:@logits/semantic/biases"
      }
    }
  }
  attr {
    key: "_output_shapes"
    value {
      list {
        shape {
          dim {
            size: 21
          }
        }
      }
    }
  }
}
node {
  name: "logits/semantic/Conv2D"
  op: "Conv2D"
  input: "decoder/decoder_conv1_pointwise/Relu"
  input: "logits/semantic/weights/read"
  attr {
    key: "T"
    value {
      type: DT_FLOAT
    }
  }
  attr {
    key: "_output_shapes"
    value {
      list {
        shape {
          dim {
            size: 1
          }
          dim {
            size: 129
          }
          dim {
            size: 129
          }
          dim {
            size: 21
          }
        }
      }
    }
  }
  attr {
    key: "data_format"
    value {
      s: "NHWC"
    }
  }
  attr {
    key: "dilations"
    value {
      list {
        i: 1
        i: 1
        i: 1
        i: 1
      }
    }
  }
  attr {
    key: "explicit_paddings"
    value {
      list {
      }
    }
  }
  attr {
    key: "padding"
    value {
      s: "SAME"
    }
  }
  attr {
    key: "strides"
    value {
      list {
        i: 1
        i: 1
        i: 1
        i: 1
      }
    }
  }
  attr {
    key: "use_cudnn_on_gpu"
    value {
      b: true
    }
  }
}
node {
  name: "logits/semantic/BiasAdd"
  op: "BiasAdd"
  input: "logits/semantic/Conv2D"
  input: "logits/semantic/biases/read"
  attr {
    key: "T"
    value {
      type: DT_FLOAT
    }
  }
  attr {
    key: "_output_shapes"
    value {
      list {
        shape {
          dim {
            size: 1
          }
          dim {
            size: 129
          }
          dim {
            size: 129
          }
          dim {
            size: 21
          }
        }
      }
    }
  }
  attr {
    key: "data_format"
    value {
      s: "NHWC"
    }
  }
}
node {
  name: "ResizeBilinear_2"
  op: "ResizeBilinear"
  input: "logits/semantic/BiasAdd"
  input: "ResizeBilinear_2/size"
  attr {
    key: "T"
    value {
      type: DT_FLOAT
    }
  }
  attr {
    key: "_output_shapes"
    value {
      list {
        shape {
          dim {
            size: 1
          }
          dim {
            size: 129
          }
          dim {
            size: 129
          }
          dim {
            size: 21
          }
        }
      }
    }
  }
  attr {
    key: "align_corners"
    value {
      b: true
    }
  }
  attr {
    key: "half_pixel_centers"
    value {
      b: false
    }
  }
}
node {
  name: "strided_slice_7"
  op: "StridedSlice"
  input: "Shape_4"
  input: "strided_slice_7/stack"
  input: "strided_slice_7/stack_1"
  input: "strided_slice_7/stack_2"
  attr {
    key: "Index"
    value {
      type: DT_INT32
    }
  }
  attr {
    key: "T"
    value {
      type: DT_INT32
    }
  }
  attr {
    key: "_output_shapes"
    value {
      list {
        shape {
          dim {
            size: 2
          }
        }
      }
    }
  }
  attr {
    key: "begin_mask"
    value {
      i: 0
    }
  }
  attr {
    key: "ellipsis_mask"
    value {
      i: 0
    }
  }
  attr {
    key: "end_mask"
    value {
      i: 0
    }
  }
  attr {
    key: "new_axis_mask"
    value {
      i: 0
    }
  }
  attr {
    key: "shrink_axis_mask"
    value {
      i: 0
    }
  }
}
node {
  name: "ResizeBilinear_3"
  op: "ResizeBilinear"
  input: "ResizeBilinear_2"
  input: "strided_slice_7"
  attr {
    key: "T"
    value {
      type: DT_FLOAT
    }
  }
  attr {
    key: "_output_shapes"
    value {
      list {
        shape {
          dim {
            size: 1
          }
          dim {
            size: -1
          }
          dim {
            size: -1
          }
          dim {
            size: 21
          }
        }
      }
    }
  }
  attr {
    key: "align_corners"
    value {
      b: true
    }
  }
  attr {
    key: "half_pixel_centers"
    value {
      b: false
    }
  }
}
node {
  name: "ArgMax"
  op: "ArgMax"
  input: "ResizeBilinear_3"
  input: "ArgMax/dimension"
  attr {
    key: "T"
    value {
      type: DT_FLOAT
    }
  }
  attr {
    key: "Tidx"
    value {
      type: DT_INT32
    }
  }
  attr {
    key: "_output_shapes"
    value {
      list {
        shape {
          dim {
            size: 1
          }
          dim {
            size: -1
          }
          dim {
            size: -1
          }
        }
      }
    }
  }
  attr {
    key: "output_type"
    value {
      type: DT_INT64
    }
  }
}
node {
  name: "strided_slice_8"
  op: "StridedSlice"
  input: "strided_slice"
  input: "strided_slice_8/stack"
  input: "strided_slice_8/stack_1"
  input: "strided_slice_8/stack_2"
  attr {
    key: "Index"
    value {
      type: DT_INT32
    }
  }
  attr {
    key: "T"
    value {
      type: DT_INT32
    }
  }
  attr {
    key: "_output_shapes"
    value {
      list {
        shape {
        }
      }
    }
  }
  attr {
    key: "begin_mask"
    value {
      i: 0
    }
  }
  attr {
    key: "ellipsis_mask"
    value {
      i: 0
    }
  }
  attr {
    key: "end_mask"
    value {
      i: 0
    }
  }
  attr {
    key: "new_axis_mask"
    value {
      i: 0
    }
  }
  attr {
    key: "shrink_axis_mask"
    value {
      i: 1
    }
  }
}
node {
  name: "strided_slice_9"
  op: "StridedSlice"
  input: "strided_slice"
  input: "strided_slice_9/stack"
  input: "strided_slice_9/stack_1"
  input: "strided_slice_9/stack_2"
  attr {
    key: "Index"
    value {
      type: DT_INT32
    }
  }
  attr {
    key: "T"
    value {
      type: DT_INT32
    }
  }
  attr {
    key: "_output_shapes"
    value {
      list {
        shape {
        }
      }
    }
  }
  attr {
    key: "begin_mask"
    value {
      i: 0
    }
  }
  attr {
    key: "ellipsis_mask"
    value {
      i: 0
    }
  }
  attr {
    key: "end_mask"
    value {
      i: 0
    }
  }
  attr {
    key: "new_axis_mask"
    value {
      i: 0
    }
  }
  attr {
    key: "shrink_axis_mask"
    value {
      i: 1
    }
  }
}
node {
  name: "SemanticPredictions/size"
  op: "Pack"
  input: "SemanticPredictions/size/0"
  input: "strided_slice_8"
  input: "strided_slice_9"
  attr {
    key: "N"
    value {
      i: 3
    }
  }
  attr {
    key: "T"
    value {
      type: DT_INT32
    }
  }
  attr {
    key: "_output_shapes"
    value {
      list {
        shape {
          dim {
            size: 3
          }
        }
      }
    }
  }
  attr {
    key: "axis"
    value {
      i: 0
    }
  }
}
node {
  name: "SemanticPredictions"
  op: "Slice"
  input: "ArgMax"
  input: "SemanticPredictions/begin"
  input: "SemanticPredictions/size"
  attr {
    key: "Index"
    value {
      type: DT_INT32
    }
  }
  attr {
    key: "T"
    value {
      type: DT_INT64
    }
  }
  attr {
    key: "_output_shapes"
    value {
      list {
        shape {
          dim {
            size: 1
          }
          dim {
            size: -1
          }
          dim {
            size: -1
          }
        }
      }
    }
  }
}
library {
}
